HloModule xla_computation_ordered_wrapper.113, entry_computation_layout={(s32[32,128]{1,0},s32[32,128]{1,0},s32[32,128]{1,0},s32[32]{0})->()}

_one_hot.82 {
  Arg_0.83 = s32[32,128]{1,0} parameter(0)
  reshape.84 = s32[32,128,1]{2,1,0} reshape(Arg_0.83)
  broadcast.87 = s32[32,128,1]{2,1,0} broadcast(reshape.84), dimensions={0,1,2}
  reshape.88 = s32[32,128]{1,0} reshape(broadcast.87)
  broadcast.89 = s32[32,128,30522]{2,1,0} broadcast(reshape.88), dimensions={0,1}
  iota.85 = s32[30522]{0} iota(), iota_dimension=0
  reshape.86 = s32[1,1,30522]{2,1,0} reshape(iota.85)
  broadcast.90 = s32[1,1,30522]{2,1,0} broadcast(reshape.86), dimensions={0,1,2}
  reshape.91 = s32[30522]{0} reshape(broadcast.90)
  broadcast.92 = s32[32,128,30522]{2,1,0} broadcast(reshape.91), dimensions={2}
  compare.93 = pred[32,128,30522]{2,1,0} compare(broadcast.89, broadcast.92), direction=EQ
  ROOT convert.94 = f32[32,128,30522]{2,1,0} convert(compare.93)
}

_one_hot_0.95 {
  Arg_0.96 = s32[32,128]{1,0} parameter(0)
  reshape.97 = s32[32,128,1]{2,1,0} reshape(Arg_0.96)
  broadcast.100 = s32[32,128,1]{2,1,0} broadcast(reshape.97), dimensions={0,1,2}
  reshape.101 = s32[32,128]{1,0} reshape(broadcast.100)
  broadcast.102 = s32[32,128,512]{2,1,0} broadcast(reshape.101), dimensions={0,1}
  iota.98 = s32[512]{0} iota(), iota_dimension=0
  reshape.99 = s32[1,1,512]{2,1,0} reshape(iota.98)
  broadcast.103 = s32[1,1,512]{2,1,0} broadcast(reshape.99), dimensions={0,1,2}
  reshape.104 = s32[512]{0} reshape(broadcast.103)
  broadcast.105 = s32[32,128,512]{2,1,0} broadcast(reshape.104), dimensions={2}
  compare.106 = pred[32,128,512]{2,1,0} compare(broadcast.102, broadcast.105), direction=EQ
  ROOT convert.107 = f32[32,128,512]{2,1,0} convert(compare.106)
}

_one_hot_1.108 {
  Arg_0.109 = s32[32,128]{1,0} parameter(0)
  reshape.110 = s32[32,128,1]{2,1,0} reshape(Arg_0.109)
  broadcast.113 = s32[32,128,1]{2,1,0} broadcast(reshape.110), dimensions={0,1,2}
  reshape.114 = s32[32,128]{1,0} reshape(broadcast.113)
  broadcast.115 = s32[32,128,2]{2,1,0} broadcast(reshape.114), dimensions={0,1}
  iota.111 = s32[2]{0} iota(), iota_dimension=0
  reshape.112 = s32[1,1,2]{2,1,0} reshape(iota.111)
  broadcast.116 = s32[1,1,2]{2,1,0} broadcast(reshape.112), dimensions={0,1,2}
  reshape.117 = s32[2]{0} reshape(broadcast.116)
  broadcast.118 = s32[32,128,2]{2,1,0} broadcast(reshape.117), dimensions={2}
  compare.119 = pred[32,128,2]{2,1,0} compare(broadcast.115, broadcast.118), direction=EQ
  ROOT convert.120 = f32[32,128,2]{2,1,0} convert(compare.119)
}

region_0.121 {
  Arg_0.122 = f32[] parameter(0)
  Arg_1.123 = f32[] parameter(1)
  ROOT add.124 = f32[] add(Arg_0.122, Arg_1.123)
}

region_1.125 {
  Arg_0.126 = f32[] parameter(0)
  Arg_1.127 = f32[] parameter(1)
  ROOT add.128 = f32[] add(Arg_0.126, Arg_1.127)
}

_einsum.129 {
  Arg_0.130 = f32[32,128,12,64]{3,2,1,0} parameter(0)
  Arg_1.131 = f32[32,128,12,64]{3,2,1,0} parameter(1)
  ROOT dot.132 = f32[32,12,128,128]{3,2,1,0} dot(Arg_0.130, Arg_1.131), lhs_batch_dims={0,2}, lhs_contracting_dims={3}, rhs_batch_dims={0,2}, rhs_contracting_dims={3}
}

region_2.133 {
  Arg_0.134 = f32[] parameter(0)
  Arg_1.135 = f32[] parameter(1)
  ROOT maximum.136 = f32[] maximum(Arg_0.134, Arg_1.135)
}

region_3.137 {
  Arg_0.138 = f32[] parameter(0)
  Arg_1.139 = f32[] parameter(1)
  ROOT add.140 = f32[] add(Arg_0.138, Arg_1.139)
}

_einsum_2.141 {
  Arg_1.143 = f32[32,128,12,64]{3,2,1,0} parameter(1)
  Arg_0.142 = f32[32,12,128,128]{3,2,1,0} parameter(0)
  dot.144 = f32[32,12,64,128]{3,2,1,0} dot(Arg_1.143, Arg_0.142), lhs_batch_dims={0,2}, lhs_contracting_dims={1}, rhs_batch_dims={0,1}, rhs_contracting_dims={3}
  ROOT transpose.145 = f32[32,128,12,64]{1,3,2,0} transpose(dot.144), dimensions={0,3,1,2}
}

region_4.146 {
  Arg_0.147 = f32[] parameter(0)
  Arg_1.148 = f32[] parameter(1)
  ROOT add.149 = f32[] add(Arg_0.147, Arg_1.148)
}

region_5.150 {
  Arg_0.151 = f32[] parameter(0)
  Arg_1.152 = f32[] parameter(1)
  ROOT add.153 = f32[] add(Arg_0.151, Arg_1.152)
}

region_6.154 {
  Arg_0.155 = f32[] parameter(0)
  Arg_1.156 = f32[] parameter(1)
  ROOT add.157 = f32[] add(Arg_0.155, Arg_1.156)
}

region_7.158 {
  Arg_0.159 = f32[] parameter(0)
  Arg_1.160 = f32[] parameter(1)
  ROOT add.161 = f32[] add(Arg_0.159, Arg_1.160)
}

_einsum_3.162 {
  Arg_0.163 = f32[32,128,12,64]{3,2,1,0} parameter(0)
  Arg_1.164 = f32[32,128,12,64]{3,2,1,0} parameter(1)
  ROOT dot.165 = f32[32,12,128,128]{3,2,1,0} dot(Arg_0.163, Arg_1.164), lhs_batch_dims={0,2}, lhs_contracting_dims={3}, rhs_batch_dims={0,2}, rhs_contracting_dims={3}
}

region_8.166 {
  Arg_0.167 = f32[] parameter(0)
  Arg_1.168 = f32[] parameter(1)
  ROOT maximum.169 = f32[] maximum(Arg_0.167, Arg_1.168)
}

region_9.170 {
  Arg_0.171 = f32[] parameter(0)
  Arg_1.172 = f32[] parameter(1)
  ROOT add.173 = f32[] add(Arg_0.171, Arg_1.172)
}

_einsum_4.174 {
  Arg_1.176 = f32[32,128,12,64]{3,2,1,0} parameter(1)
  Arg_0.175 = f32[32,12,128,128]{3,2,1,0} parameter(0)
  dot.177 = f32[32,12,64,128]{3,2,1,0} dot(Arg_1.176, Arg_0.175), lhs_batch_dims={0,2}, lhs_contracting_dims={1}, rhs_batch_dims={0,1}, rhs_contracting_dims={3}
  ROOT transpose.178 = f32[32,128,12,64]{1,3,2,0} transpose(dot.177), dimensions={0,3,1,2}
}

region_10.179 {
  Arg_0.180 = f32[] parameter(0)
  Arg_1.181 = f32[] parameter(1)
  ROOT add.182 = f32[] add(Arg_0.180, Arg_1.181)
}

region_11.183 {
  Arg_0.184 = f32[] parameter(0)
  Arg_1.185 = f32[] parameter(1)
  ROOT add.186 = f32[] add(Arg_0.184, Arg_1.185)
}

region_12.187 {
  Arg_0.188 = f32[] parameter(0)
  Arg_1.189 = f32[] parameter(1)
  ROOT add.190 = f32[] add(Arg_0.188, Arg_1.189)
}

region_13.191 {
  Arg_0.192 = f32[] parameter(0)
  Arg_1.193 = f32[] parameter(1)
  ROOT add.194 = f32[] add(Arg_0.192, Arg_1.193)
}

_einsum_5.195 {
  Arg_0.196 = f32[32,128,12,64]{3,2,1,0} parameter(0)
  Arg_1.197 = f32[32,128,12,64]{3,2,1,0} parameter(1)
  ROOT dot.198 = f32[32,12,128,128]{3,2,1,0} dot(Arg_0.196, Arg_1.197), lhs_batch_dims={0,2}, lhs_contracting_dims={3}, rhs_batch_dims={0,2}, rhs_contracting_dims={3}
}

region_14.199 {
  Arg_0.200 = f32[] parameter(0)
  Arg_1.201 = f32[] parameter(1)
  ROOT maximum.202 = f32[] maximum(Arg_0.200, Arg_1.201)
}

region_15.203 {
  Arg_0.204 = f32[] parameter(0)
  Arg_1.205 = f32[] parameter(1)
  ROOT add.206 = f32[] add(Arg_0.204, Arg_1.205)
}

_einsum_6.207 {
  Arg_1.209 = f32[32,128,12,64]{3,2,1,0} parameter(1)
  Arg_0.208 = f32[32,12,128,128]{3,2,1,0} parameter(0)
  dot.210 = f32[32,12,64,128]{3,2,1,0} dot(Arg_1.209, Arg_0.208), lhs_batch_dims={0,2}, lhs_contracting_dims={1}, rhs_batch_dims={0,1}, rhs_contracting_dims={3}
  ROOT transpose.211 = f32[32,128,12,64]{1,3,2,0} transpose(dot.210), dimensions={0,3,1,2}
}

region_16.212 {
  Arg_0.213 = f32[] parameter(0)
  Arg_1.214 = f32[] parameter(1)
  ROOT add.215 = f32[] add(Arg_0.213, Arg_1.214)
}

region_17.216 {
  Arg_0.217 = f32[] parameter(0)
  Arg_1.218 = f32[] parameter(1)
  ROOT add.219 = f32[] add(Arg_0.217, Arg_1.218)
}

region_18.220 {
  Arg_0.221 = f32[] parameter(0)
  Arg_1.222 = f32[] parameter(1)
  ROOT add.223 = f32[] add(Arg_0.221, Arg_1.222)
}

region_19.224 {
  Arg_0.225 = f32[] parameter(0)
  Arg_1.226 = f32[] parameter(1)
  ROOT add.227 = f32[] add(Arg_0.225, Arg_1.226)
}

_einsum_7.228 {
  Arg_0.229 = f32[32,128,12,64]{3,2,1,0} parameter(0)
  Arg_1.230 = f32[32,128,12,64]{3,2,1,0} parameter(1)
  ROOT dot.231 = f32[32,12,128,128]{3,2,1,0} dot(Arg_0.229, Arg_1.230), lhs_batch_dims={0,2}, lhs_contracting_dims={3}, rhs_batch_dims={0,2}, rhs_contracting_dims={3}
}

region_20.232 {
  Arg_0.233 = f32[] parameter(0)
  Arg_1.234 = f32[] parameter(1)
  ROOT maximum.235 = f32[] maximum(Arg_0.233, Arg_1.234)
}

region_21.236 {
  Arg_0.237 = f32[] parameter(0)
  Arg_1.238 = f32[] parameter(1)
  ROOT add.239 = f32[] add(Arg_0.237, Arg_1.238)
}

_einsum_8.240 {
  Arg_1.242 = f32[32,128,12,64]{3,2,1,0} parameter(1)
  Arg_0.241 = f32[32,12,128,128]{3,2,1,0} parameter(0)
  dot.243 = f32[32,12,64,128]{3,2,1,0} dot(Arg_1.242, Arg_0.241), lhs_batch_dims={0,2}, lhs_contracting_dims={1}, rhs_batch_dims={0,1}, rhs_contracting_dims={3}
  ROOT transpose.244 = f32[32,128,12,64]{1,3,2,0} transpose(dot.243), dimensions={0,3,1,2}
}

region_22.245 {
  Arg_0.246 = f32[] parameter(0)
  Arg_1.247 = f32[] parameter(1)
  ROOT add.248 = f32[] add(Arg_0.246, Arg_1.247)
}

region_23.249 {
  Arg_0.250 = f32[] parameter(0)
  Arg_1.251 = f32[] parameter(1)
  ROOT add.252 = f32[] add(Arg_0.250, Arg_1.251)
}

region_24.253 {
  Arg_0.254 = f32[] parameter(0)
  Arg_1.255 = f32[] parameter(1)
  ROOT add.256 = f32[] add(Arg_0.254, Arg_1.255)
}

region_25.257 {
  Arg_0.258 = f32[] parameter(0)
  Arg_1.259 = f32[] parameter(1)
  ROOT add.260 = f32[] add(Arg_0.258, Arg_1.259)
}

_einsum_9.261 {
  Arg_0.262 = f32[32,128,12,64]{3,2,1,0} parameter(0)
  Arg_1.263 = f32[32,128,12,64]{3,2,1,0} parameter(1)
  ROOT dot.264 = f32[32,12,128,128]{3,2,1,0} dot(Arg_0.262, Arg_1.263), lhs_batch_dims={0,2}, lhs_contracting_dims={3}, rhs_batch_dims={0,2}, rhs_contracting_dims={3}
}

region_26.265 {
  Arg_0.266 = f32[] parameter(0)
  Arg_1.267 = f32[] parameter(1)
  ROOT maximum.268 = f32[] maximum(Arg_0.266, Arg_1.267)
}

region_27.269 {
  Arg_0.270 = f32[] parameter(0)
  Arg_1.271 = f32[] parameter(1)
  ROOT add.272 = f32[] add(Arg_0.270, Arg_1.271)
}

_einsum_10.273 {
  Arg_1.275 = f32[32,128,12,64]{3,2,1,0} parameter(1)
  Arg_0.274 = f32[32,12,128,128]{3,2,1,0} parameter(0)
  dot.276 = f32[32,12,64,128]{3,2,1,0} dot(Arg_1.275, Arg_0.274), lhs_batch_dims={0,2}, lhs_contracting_dims={1}, rhs_batch_dims={0,1}, rhs_contracting_dims={3}
  ROOT transpose.277 = f32[32,128,12,64]{1,3,2,0} transpose(dot.276), dimensions={0,3,1,2}
}

region_28.278 {
  Arg_0.279 = f32[] parameter(0)
  Arg_1.280 = f32[] parameter(1)
  ROOT add.281 = f32[] add(Arg_0.279, Arg_1.280)
}

region_29.282 {
  Arg_0.283 = f32[] parameter(0)
  Arg_1.284 = f32[] parameter(1)
  ROOT add.285 = f32[] add(Arg_0.283, Arg_1.284)
}

region_30.286 {
  Arg_0.287 = f32[] parameter(0)
  Arg_1.288 = f32[] parameter(1)
  ROOT add.289 = f32[] add(Arg_0.287, Arg_1.288)
}

region_31.290 {
  Arg_0.291 = f32[] parameter(0)
  Arg_1.292 = f32[] parameter(1)
  ROOT add.293 = f32[] add(Arg_0.291, Arg_1.292)
}

_einsum_11.294 {
  Arg_0.295 = f32[32,128,12,64]{3,2,1,0} parameter(0)
  Arg_1.296 = f32[32,128,12,64]{3,2,1,0} parameter(1)
  ROOT dot.297 = f32[32,12,128,128]{3,2,1,0} dot(Arg_0.295, Arg_1.296), lhs_batch_dims={0,2}, lhs_contracting_dims={3}, rhs_batch_dims={0,2}, rhs_contracting_dims={3}
}

region_32.298 {
  Arg_0.299 = f32[] parameter(0)
  Arg_1.300 = f32[] parameter(1)
  ROOT maximum.301 = f32[] maximum(Arg_0.299, Arg_1.300)
}

region_33.302 {
  Arg_0.303 = f32[] parameter(0)
  Arg_1.304 = f32[] parameter(1)
  ROOT add.305 = f32[] add(Arg_0.303, Arg_1.304)
}

_einsum_12.306 {
  Arg_1.308 = f32[32,128,12,64]{3,2,1,0} parameter(1)
  Arg_0.307 = f32[32,12,128,128]{3,2,1,0} parameter(0)
  dot.309 = f32[32,12,64,128]{3,2,1,0} dot(Arg_1.308, Arg_0.307), lhs_batch_dims={0,2}, lhs_contracting_dims={1}, rhs_batch_dims={0,1}, rhs_contracting_dims={3}
  ROOT transpose.310 = f32[32,128,12,64]{1,3,2,0} transpose(dot.309), dimensions={0,3,1,2}
}

region_34.311 {
  Arg_0.312 = f32[] parameter(0)
  Arg_1.313 = f32[] parameter(1)
  ROOT add.314 = f32[] add(Arg_0.312, Arg_1.313)
}

region_35.315 {
  Arg_0.316 = f32[] parameter(0)
  Arg_1.317 = f32[] parameter(1)
  ROOT add.318 = f32[] add(Arg_0.316, Arg_1.317)
}

region_36.319 {
  Arg_0.320 = f32[] parameter(0)
  Arg_1.321 = f32[] parameter(1)
  ROOT add.322 = f32[] add(Arg_0.320, Arg_1.321)
}

region_37.323 {
  Arg_0.324 = f32[] parameter(0)
  Arg_1.325 = f32[] parameter(1)
  ROOT add.326 = f32[] add(Arg_0.324, Arg_1.325)
}

_einsum_13.327 {
  Arg_0.328 = f32[32,128,12,64]{3,2,1,0} parameter(0)
  Arg_1.329 = f32[32,128,12,64]{3,2,1,0} parameter(1)
  ROOT dot.330 = f32[32,12,128,128]{3,2,1,0} dot(Arg_0.328, Arg_1.329), lhs_batch_dims={0,2}, lhs_contracting_dims={3}, rhs_batch_dims={0,2}, rhs_contracting_dims={3}
}

region_38.331 {
  Arg_0.332 = f32[] parameter(0)
  Arg_1.333 = f32[] parameter(1)
  ROOT maximum.334 = f32[] maximum(Arg_0.332, Arg_1.333)
}

region_39.335 {
  Arg_0.336 = f32[] parameter(0)
  Arg_1.337 = f32[] parameter(1)
  ROOT add.338 = f32[] add(Arg_0.336, Arg_1.337)
}

_einsum_14.339 {
  Arg_1.341 = f32[32,128,12,64]{3,2,1,0} parameter(1)
  Arg_0.340 = f32[32,12,128,128]{3,2,1,0} parameter(0)
  dot.342 = f32[32,12,64,128]{3,2,1,0} dot(Arg_1.341, Arg_0.340), lhs_batch_dims={0,2}, lhs_contracting_dims={1}, rhs_batch_dims={0,1}, rhs_contracting_dims={3}
  ROOT transpose.343 = f32[32,128,12,64]{1,3,2,0} transpose(dot.342), dimensions={0,3,1,2}
}

region_40.344 {
  Arg_0.345 = f32[] parameter(0)
  Arg_1.346 = f32[] parameter(1)
  ROOT add.347 = f32[] add(Arg_0.345, Arg_1.346)
}

region_41.348 {
  Arg_0.349 = f32[] parameter(0)
  Arg_1.350 = f32[] parameter(1)
  ROOT add.351 = f32[] add(Arg_0.349, Arg_1.350)
}

region_42.352 {
  Arg_0.353 = f32[] parameter(0)
  Arg_1.354 = f32[] parameter(1)
  ROOT add.355 = f32[] add(Arg_0.353, Arg_1.354)
}

region_43.356 {
  Arg_0.357 = f32[] parameter(0)
  Arg_1.358 = f32[] parameter(1)
  ROOT add.359 = f32[] add(Arg_0.357, Arg_1.358)
}

_einsum_15.360 {
  Arg_0.361 = f32[32,128,12,64]{3,2,1,0} parameter(0)
  Arg_1.362 = f32[32,128,12,64]{3,2,1,0} parameter(1)
  ROOT dot.363 = f32[32,12,128,128]{3,2,1,0} dot(Arg_0.361, Arg_1.362), lhs_batch_dims={0,2}, lhs_contracting_dims={3}, rhs_batch_dims={0,2}, rhs_contracting_dims={3}
}

region_44.364 {
  Arg_0.365 = f32[] parameter(0)
  Arg_1.366 = f32[] parameter(1)
  ROOT maximum.367 = f32[] maximum(Arg_0.365, Arg_1.366)
}

region_45.368 {
  Arg_0.369 = f32[] parameter(0)
  Arg_1.370 = f32[] parameter(1)
  ROOT add.371 = f32[] add(Arg_0.369, Arg_1.370)
}

_einsum_16.372 {
  Arg_1.374 = f32[32,128,12,64]{3,2,1,0} parameter(1)
  Arg_0.373 = f32[32,12,128,128]{3,2,1,0} parameter(0)
  dot.375 = f32[32,12,64,128]{3,2,1,0} dot(Arg_1.374, Arg_0.373), lhs_batch_dims={0,2}, lhs_contracting_dims={1}, rhs_batch_dims={0,1}, rhs_contracting_dims={3}
  ROOT transpose.376 = f32[32,128,12,64]{1,3,2,0} transpose(dot.375), dimensions={0,3,1,2}
}

region_46.377 {
  Arg_0.378 = f32[] parameter(0)
  Arg_1.379 = f32[] parameter(1)
  ROOT add.380 = f32[] add(Arg_0.378, Arg_1.379)
}

region_47.381 {
  Arg_0.382 = f32[] parameter(0)
  Arg_1.383 = f32[] parameter(1)
  ROOT add.384 = f32[] add(Arg_0.382, Arg_1.383)
}

region_48.385 {
  Arg_0.386 = f32[] parameter(0)
  Arg_1.387 = f32[] parameter(1)
  ROOT add.388 = f32[] add(Arg_0.386, Arg_1.387)
}

region_49.389 {
  Arg_0.390 = f32[] parameter(0)
  Arg_1.391 = f32[] parameter(1)
  ROOT add.392 = f32[] add(Arg_0.390, Arg_1.391)
}

_einsum_17.393 {
  Arg_0.394 = f32[32,128,12,64]{3,2,1,0} parameter(0)
  Arg_1.395 = f32[32,128,12,64]{3,2,1,0} parameter(1)
  ROOT dot.396 = f32[32,12,128,128]{3,2,1,0} dot(Arg_0.394, Arg_1.395), lhs_batch_dims={0,2}, lhs_contracting_dims={3}, rhs_batch_dims={0,2}, rhs_contracting_dims={3}
}

region_50.397 {
  Arg_0.398 = f32[] parameter(0)
  Arg_1.399 = f32[] parameter(1)
  ROOT maximum.400 = f32[] maximum(Arg_0.398, Arg_1.399)
}

region_51.401 {
  Arg_0.402 = f32[] parameter(0)
  Arg_1.403 = f32[] parameter(1)
  ROOT add.404 = f32[] add(Arg_0.402, Arg_1.403)
}

_einsum_18.405 {
  Arg_1.407 = f32[32,128,12,64]{3,2,1,0} parameter(1)
  Arg_0.406 = f32[32,12,128,128]{3,2,1,0} parameter(0)
  dot.408 = f32[32,12,64,128]{3,2,1,0} dot(Arg_1.407, Arg_0.406), lhs_batch_dims={0,2}, lhs_contracting_dims={1}, rhs_batch_dims={0,1}, rhs_contracting_dims={3}
  ROOT transpose.409 = f32[32,128,12,64]{1,3,2,0} transpose(dot.408), dimensions={0,3,1,2}
}

region_52.410 {
  Arg_0.411 = f32[] parameter(0)
  Arg_1.412 = f32[] parameter(1)
  ROOT add.413 = f32[] add(Arg_0.411, Arg_1.412)
}

region_53.414 {
  Arg_0.415 = f32[] parameter(0)
  Arg_1.416 = f32[] parameter(1)
  ROOT add.417 = f32[] add(Arg_0.415, Arg_1.416)
}

region_54.418 {
  Arg_0.419 = f32[] parameter(0)
  Arg_1.420 = f32[] parameter(1)
  ROOT add.421 = f32[] add(Arg_0.419, Arg_1.420)
}

region_55.422 {
  Arg_0.423 = f32[] parameter(0)
  Arg_1.424 = f32[] parameter(1)
  ROOT add.425 = f32[] add(Arg_0.423, Arg_1.424)
}

_einsum_19.426 {
  Arg_0.427 = f32[32,128,12,64]{3,2,1,0} parameter(0)
  Arg_1.428 = f32[32,128,12,64]{3,2,1,0} parameter(1)
  ROOT dot.429 = f32[32,12,128,128]{3,2,1,0} dot(Arg_0.427, Arg_1.428), lhs_batch_dims={0,2}, lhs_contracting_dims={3}, rhs_batch_dims={0,2}, rhs_contracting_dims={3}
}

region_56.430 {
  Arg_0.431 = f32[] parameter(0)
  Arg_1.432 = f32[] parameter(1)
  ROOT maximum.433 = f32[] maximum(Arg_0.431, Arg_1.432)
}

region_57.434 {
  Arg_0.435 = f32[] parameter(0)
  Arg_1.436 = f32[] parameter(1)
  ROOT add.437 = f32[] add(Arg_0.435, Arg_1.436)
}

_einsum_20.438 {
  Arg_1.440 = f32[32,128,12,64]{3,2,1,0} parameter(1)
  Arg_0.439 = f32[32,12,128,128]{3,2,1,0} parameter(0)
  dot.441 = f32[32,12,64,128]{3,2,1,0} dot(Arg_1.440, Arg_0.439), lhs_batch_dims={0,2}, lhs_contracting_dims={1}, rhs_batch_dims={0,1}, rhs_contracting_dims={3}
  ROOT transpose.442 = f32[32,128,12,64]{1,3,2,0} transpose(dot.441), dimensions={0,3,1,2}
}

region_58.443 {
  Arg_0.444 = f32[] parameter(0)
  Arg_1.445 = f32[] parameter(1)
  ROOT add.446 = f32[] add(Arg_0.444, Arg_1.445)
}

region_59.447 {
  Arg_0.448 = f32[] parameter(0)
  Arg_1.449 = f32[] parameter(1)
  ROOT add.450 = f32[] add(Arg_0.448, Arg_1.449)
}

region_60.451 {
  Arg_0.452 = f32[] parameter(0)
  Arg_1.453 = f32[] parameter(1)
  ROOT add.454 = f32[] add(Arg_0.452, Arg_1.453)
}

region_61.455 {
  Arg_0.456 = f32[] parameter(0)
  Arg_1.457 = f32[] parameter(1)
  ROOT add.458 = f32[] add(Arg_0.456, Arg_1.457)
}

_einsum_21.459 {
  Arg_0.460 = f32[32,128,12,64]{3,2,1,0} parameter(0)
  Arg_1.461 = f32[32,128,12,64]{3,2,1,0} parameter(1)
  ROOT dot.462 = f32[32,12,128,128]{3,2,1,0} dot(Arg_0.460, Arg_1.461), lhs_batch_dims={0,2}, lhs_contracting_dims={3}, rhs_batch_dims={0,2}, rhs_contracting_dims={3}
}

region_62.463 {
  Arg_0.464 = f32[] parameter(0)
  Arg_1.465 = f32[] parameter(1)
  ROOT maximum.466 = f32[] maximum(Arg_0.464, Arg_1.465)
}

region_63.467 {
  Arg_0.468 = f32[] parameter(0)
  Arg_1.469 = f32[] parameter(1)
  ROOT add.470 = f32[] add(Arg_0.468, Arg_1.469)
}

_einsum_22.471 {
  Arg_1.473 = f32[32,128,12,64]{3,2,1,0} parameter(1)
  Arg_0.472 = f32[32,12,128,128]{3,2,1,0} parameter(0)
  dot.474 = f32[32,12,64,128]{3,2,1,0} dot(Arg_1.473, Arg_0.472), lhs_batch_dims={0,2}, lhs_contracting_dims={1}, rhs_batch_dims={0,1}, rhs_contracting_dims={3}
  ROOT transpose.475 = f32[32,128,12,64]{1,3,2,0} transpose(dot.474), dimensions={0,3,1,2}
}

region_64.476 {
  Arg_0.477 = f32[] parameter(0)
  Arg_1.478 = f32[] parameter(1)
  ROOT add.479 = f32[] add(Arg_0.477, Arg_1.478)
}

region_65.480 {
  Arg_0.481 = f32[] parameter(0)
  Arg_1.482 = f32[] parameter(1)
  ROOT add.483 = f32[] add(Arg_0.481, Arg_1.482)
}

region_66.484 {
  Arg_0.485 = f32[] parameter(0)
  Arg_1.486 = f32[] parameter(1)
  ROOT add.487 = f32[] add(Arg_0.485, Arg_1.486)
}

region_67.488 {
  Arg_0.489 = f32[] parameter(0)
  Arg_1.490 = f32[] parameter(1)
  ROOT add.491 = f32[] add(Arg_0.489, Arg_1.490)
}

_einsum_23.492 {
  Arg_0.493 = f32[32,128,12,64]{3,2,1,0} parameter(0)
  Arg_1.494 = f32[32,128,12,64]{3,2,1,0} parameter(1)
  ROOT dot.495 = f32[32,12,128,128]{3,2,1,0} dot(Arg_0.493, Arg_1.494), lhs_batch_dims={0,2}, lhs_contracting_dims={3}, rhs_batch_dims={0,2}, rhs_contracting_dims={3}
}

region_68.496 {
  Arg_0.497 = f32[] parameter(0)
  Arg_1.498 = f32[] parameter(1)
  ROOT maximum.499 = f32[] maximum(Arg_0.497, Arg_1.498)
}

region_69.500 {
  Arg_0.501 = f32[] parameter(0)
  Arg_1.502 = f32[] parameter(1)
  ROOT add.503 = f32[] add(Arg_0.501, Arg_1.502)
}

_einsum_24.504 {
  Arg_1.506 = f32[32,128,12,64]{3,2,1,0} parameter(1)
  Arg_0.505 = f32[32,12,128,128]{3,2,1,0} parameter(0)
  dot.507 = f32[32,12,64,128]{3,2,1,0} dot(Arg_1.506, Arg_0.505), lhs_batch_dims={0,2}, lhs_contracting_dims={1}, rhs_batch_dims={0,1}, rhs_contracting_dims={3}
  ROOT transpose.508 = f32[32,128,12,64]{1,3,2,0} transpose(dot.507), dimensions={0,3,1,2}
}

region_70.509 {
  Arg_0.510 = f32[] parameter(0)
  Arg_1.511 = f32[] parameter(1)
  ROOT add.512 = f32[] add(Arg_0.510, Arg_1.511)
}

region_71.513 {
  Arg_0.514 = f32[] parameter(0)
  Arg_1.515 = f32[] parameter(1)
  ROOT add.516 = f32[] add(Arg_0.514, Arg_1.515)
}

region_72.517 {
  Arg_0.518 = f32[] parameter(0)
  Arg_1.519 = f32[] parameter(1)
  ROOT add.520 = f32[] add(Arg_0.518, Arg_1.519)
}

region_73.521 {
  Arg_0.522 = f32[] parameter(0)
  Arg_1.523 = f32[] parameter(1)
  ROOT add.524 = f32[] add(Arg_0.522, Arg_1.523)
}

_where.525 {
  Arg_0.526 = pred[32]{0} parameter(0)
  Arg_1.527 = f32[] parameter(1)
  broadcast.529 = f32[32]{0} broadcast(Arg_1.527), dimensions={}
  Arg_2.528 = f32[] parameter(2)
  broadcast.530 = f32[32]{0} broadcast(Arg_2.528), dimensions={}
  ROOT select.531 = f32[32]{0} select(Arg_0.526, broadcast.529, broadcast.530)
}

_one_hot_25.532 {
  Arg_0.533 = s32[32]{0} parameter(0)
  reshape.534 = s32[32,1]{1,0} reshape(Arg_0.533)
  broadcast.537 = s32[32,1]{1,0} broadcast(reshape.534), dimensions={0,1}
  reshape.538 = s32[32]{0} reshape(broadcast.537)
  broadcast.539 = s32[32,2]{1,0} broadcast(reshape.538), dimensions={0}
  iota.535 = s32[2]{0} iota(), iota_dimension=0
  reshape.536 = s32[1,2]{1,0} reshape(iota.535)
  broadcast.540 = s32[1,2]{1,0} broadcast(reshape.536), dimensions={0,1}
  reshape.541 = s32[2]{0} reshape(broadcast.540)
  broadcast.542 = s32[32,2]{1,0} broadcast(reshape.541), dimensions={1}
  compare.543 = pred[32,2]{1,0} compare(broadcast.539, broadcast.542), direction=EQ
  ROOT convert.544 = f32[32,2]{1,0} convert(compare.543)
}

region_74.545 {
  Arg_0.546 = f32[] parameter(0)
  Arg_1.547 = f32[] parameter(1)
  ROOT maximum.548 = f32[] maximum(Arg_0.546, Arg_1.547)
}

region_75.549 {
  Arg_0.550 = f32[] parameter(0)
  Arg_1.551 = f32[] parameter(1)
  ROOT add.552 = f32[] add(Arg_0.550, Arg_1.551)
}

log_softmax.553 {
  Arg_0.554 = f32[32,2]{1,0} parameter(0)
  constant.556 = f32[] constant(-inf)
  reduce.557 = f32[32]{0} reduce(Arg_0.554, constant.556), dimensions={1}, to_apply=region_74.545
  reshape.558 = f32[32,1]{1,0} reshape(reduce.557)
  broadcast.559 = f32[32,1]{1,0} broadcast(reshape.558), dimensions={0,1}
  reshape.560 = f32[32]{0} reshape(broadcast.559)
  broadcast.561 = f32[32,2]{1,0} broadcast(reshape.560), dimensions={0}
  subtract.562 = f32[32,2]{1,0} subtract(Arg_0.554, broadcast.561)
  exponential.563 = f32[32,2]{1,0} exponential(subtract.562)
  constant.555 = f32[] constant(0)
  reduce.564 = f32[32]{0} reduce(exponential.563, constant.555), dimensions={1}, to_apply=region_75.549
  reshape.565 = f32[32,1]{1,0} reshape(reduce.564)
  log.566 = f32[32,1]{1,0} log(reshape.565)
  broadcast.567 = f32[32,1]{1,0} broadcast(log.566), dimensions={0,1}
  reshape.568 = f32[32]{0} reshape(broadcast.567)
  broadcast.569 = f32[32,2]{1,0} broadcast(reshape.568), dimensions={0}
  ROOT subtract.570 = f32[32,2]{1,0} subtract(subtract.562, broadcast.569)
}

eval_step.571 {
  Arg_156.728 = s32[32]{0} parameter(156)
  constant.729 = s32[] constant(0)
  broadcast.730 = s32[32]{0} broadcast(constant.729), dimensions={}
  compare.2602 = pred[32]{0} compare(Arg_156.728, broadcast.730), direction=GT
  constant.753 = f32[] constant(1)
  constant.785 = f32[] constant(0)
  call.2603 = f32[32]{0} call(compare.2602, constant.753, constant.785), to_apply=_where.525
  call.2604 = f32[32,2]{1,0} call(Arg_156.728), to_apply=_one_hot_25.532
  Arg_153.725 = s32[32,128]{1,0} parameter(153)
  call.786 = f32[32,128,30522]{2,1,0} call(Arg_153.725), to_apply=_one_hot.82
  Arg_0.572 = f32[30522,768]{1,0} parameter(0)
  dot.787 = f32[32,128,768]{2,1,0} dot(call.786, Arg_0.572), lhs_contracting_dims={2}, rhs_contracting_dims={0}
  constant.751 = s32[] constant(1)
  broadcast.752 = s32[32,128]{1,0} broadcast(constant.751), dimensions={}
  call.788 = f32[32,128,512]{2,1,0} call(broadcast.752), to_apply=_one_hot_0.95
  Arg_1.573 = f32[512,768]{1,0} parameter(1)
  dot.789 = f32[32,128,768]{2,1,0} dot(call.788, Arg_1.573), lhs_contracting_dims={2}, rhs_contracting_dims={0}
  add.792 = f32[32,128,768]{2,1,0} add(dot.787, dot.789)
  Arg_155.727 = s32[32,128]{1,0} parameter(155)
  call.790 = f32[32,128,2]{2,1,0} call(Arg_155.727), to_apply=_one_hot_1.108
  Arg_2.574 = f32[2,768]{1,0} parameter(2)
  dot.791 = f32[32,128,768]{2,1,0} dot(call.790, Arg_2.574), lhs_contracting_dims={2}, rhs_contracting_dims={0}
  add.793 = f32[32,128,768]{2,1,0} add(add.792, dot.791)
  reduce.794 = f32[32,128]{1,0} reduce(add.793, constant.785), dimensions={2}, to_apply=region_0.121
  constant.735 = f32[] constant(768)
  broadcast.736 = f32[32,128]{1,0} broadcast(constant.735), dimensions={}
  divide.795 = f32[32,128]{1,0} divide(reduce.794, broadcast.736)
  reshape.802 = f32[32,128,1]{2,1,0} reshape(divide.795)
  broadcast.804 = f32[32,128,1]{2,1,0} broadcast(reshape.802), dimensions={0,1,2}
  reshape.805 = f32[32,128]{1,0} reshape(broadcast.804)
  broadcast.806 = f32[32,128,768]{2,1,0} broadcast(reshape.805), dimensions={0,1}
  subtract.807 = f32[32,128,768]{2,1,0} subtract(add.793, broadcast.806)
  multiply.796 = f32[32,128,768]{2,1,0} multiply(add.793, add.793)
  reduce.797 = f32[32,128]{1,0} reduce(multiply.796, constant.785), dimensions={2}, to_apply=region_1.125
  divide.798 = f32[32,128]{1,0} divide(reduce.797, broadcast.736)
  multiply.799 = f32[32,128]{1,0} multiply(divide.795, divide.795)
  subtract.800 = f32[32,128]{1,0} subtract(divide.798, multiply.799)
  constant.733 = f32[] constant(0)
  broadcast.734 = f32[32,128]{1,0} broadcast(constant.733), dimensions={}
  maximum.801 = f32[32,128]{1,0} maximum(subtract.800, broadcast.734)
  reshape.803 = f32[32,128,1]{2,1,0} reshape(maximum.801)
  constant.731 = f32[] constant(1e-12)
  broadcast.732 = f32[32,128,1]{2,1,0} broadcast(constant.731), dimensions={}
  add.808 = f32[32,128,1]{2,1,0} add(reshape.803, broadcast.732)
  rsqrt.809 = f32[32,128,1]{2,1,0} rsqrt(add.808)
  broadcast.811 = f32[32,128,1]{2,1,0} broadcast(rsqrt.809), dimensions={0,1,2}
  reshape.812 = f32[32,128]{1,0} reshape(broadcast.811)
  broadcast.813 = f32[32,128,768]{2,1,0} broadcast(reshape.812), dimensions={0,1}
  Arg_3.575 = f32[768]{0} parameter(3)
  reshape.810 = f32[1,1,768]{2,1,0} reshape(Arg_3.575)
  broadcast.814 = f32[1,1,768]{2,1,0} broadcast(reshape.810), dimensions={0,1,2}
  reshape.815 = f32[768]{0} reshape(broadcast.814)
  broadcast.816 = f32[32,128,768]{2,1,0} broadcast(reshape.815), dimensions={2}
  multiply.817 = f32[32,128,768]{2,1,0} multiply(broadcast.813, broadcast.816)
  multiply.818 = f32[32,128,768]{2,1,0} multiply(subtract.807, multiply.817)
  Arg_4.576 = f32[1,1,768]{2,1,0} parameter(4)
  broadcast.819 = f32[1,1,768]{2,1,0} broadcast(Arg_4.576), dimensions={0,1,2}
  reshape.820 = f32[768]{0} reshape(broadcast.819)
  broadcast.821 = f32[32,128,768]{2,1,0} broadcast(reshape.820), dimensions={2}
  add.822 = f32[32,128,768]{2,1,0} add(multiply.818, broadcast.821)
  Arg_5.577 = f32[768,2304]{1,0} parameter(5)
  dot.823 = f32[32,128,2304]{2,1,0} dot(add.822, Arg_5.577), lhs_contracting_dims={2}, rhs_contracting_dims={0}
  Arg_6.578 = f32[2304]{0} parameter(6)
  reshape.824 = f32[1,1,2304]{2,1,0} reshape(Arg_6.578)
  broadcast.825 = f32[1,1,2304]{2,1,0} broadcast(reshape.824), dimensions={0,1,2}
  reshape.826 = f32[2304]{0} reshape(broadcast.825)
  broadcast.827 = f32[32,128,2304]{2,1,0} broadcast(reshape.826), dimensions={2}
  add.828 = f32[32,128,2304]{2,1,0} add(dot.823, broadcast.827)
  reshape.829 = f32[32,128,768,3]{3,2,1,0} reshape(add.828)
  slice.830 = f32[32,128,768,1]{3,2,1,0} slice(reshape.829), slice={[0:32], [0:128], [0:768], [0:1]}
  reshape.833 = f32[32,128,12,64]{3,2,1,0} reshape(slice.830)
  constant.743 = f32[] constant(8)
  broadcast.744 = f32[32,128,12,64]{3,2,1,0} broadcast(constant.743), dimensions={}
  divide.839 = f32[32,128,12,64]{3,2,1,0} divide(reshape.833, broadcast.744)
  slice.832 = f32[32,128,768,1]{3,2,1,0} slice(reshape.829), slice={[0:32], [0:128], [0:768], [2:3]}
  reshape.835 = f32[32,128,12,64]{3,2,1,0} reshape(slice.832)
  call.840 = f32[32,12,128,128]{3,2,1,0} call(divide.839, reshape.835), to_apply=_einsum.129
  Arg_154.726 = s32[32,128]{1,0} parameter(154)
  reshape.836 = s32[32,1,1,128]{3,2,1,0} reshape(Arg_154.726)
  constant.749 = s32[] constant(0)
  broadcast.750 = s32[32,1,1,128]{3,2,1,0} broadcast(constant.749), dimensions={}
  compare.837 = pred[32,1,1,128]{3,2,1,0} compare(reshape.836, broadcast.750), direction=GT
  constant.747 = f32[] constant(0)
  broadcast.748 = f32[32,1,1,128]{3,2,1,0} broadcast(constant.747), dimensions={}
  constant.745 = f32[] constant(-1e+10)
  broadcast.746 = f32[32,1,1,128]{3,2,1,0} broadcast(constant.745), dimensions={}
  select.838 = f32[32,1,1,128]{3,2,1,0} select(compare.837, broadcast.748, broadcast.746)
  broadcast.841 = f32[32,1,1,128]{3,2,1,0} broadcast(select.838), dimensions={0,1,2,3}
  reshape.842 = f32[32,128]{1,0} reshape(broadcast.841)
  broadcast.843 = f32[32,12,128,128]{3,2,1,0} broadcast(reshape.842), dimensions={0,3}
  add.844 = f32[32,12,128,128]{3,2,1,0} add(call.840, broadcast.843)
  constant.784 = f32[] constant(-inf)
  reduce.845 = f32[32,12,128]{2,1,0} reduce(add.844, constant.784), dimensions={3}, to_apply=region_2.133
  reshape.846 = f32[32,12,128,1]{3,2,1,0} reshape(reduce.845)
  broadcast.847 = f32[32,12,128,1]{3,2,1,0} broadcast(reshape.846), dimensions={0,1,2,3}
  reshape.848 = f32[32,12,128]{2,1,0} reshape(broadcast.847)
  broadcast.849 = f32[32,12,128,128]{3,2,1,0} broadcast(reshape.848), dimensions={0,1,2}
  subtract.850 = f32[32,12,128,128]{3,2,1,0} subtract(add.844, broadcast.849)
  exponential.851 = f32[32,12,128,128]{3,2,1,0} exponential(subtract.850)
  reduce.852 = f32[32,12,128]{2,1,0} reduce(exponential.851, constant.785), dimensions={3}, to_apply=region_3.137
  reshape.853 = f32[32,12,128,1]{3,2,1,0} reshape(reduce.852)
  broadcast.854 = f32[32,12,128,1]{3,2,1,0} broadcast(reshape.853), dimensions={0,1,2,3}
  reshape.855 = f32[32,12,128]{2,1,0} reshape(broadcast.854)
  broadcast.856 = f32[32,12,128,128]{3,2,1,0} broadcast(reshape.855), dimensions={0,1,2}
  divide.857 = f32[32,12,128,128]{3,2,1,0} divide(exponential.851, broadcast.856)
  slice.831 = f32[32,128,768,1]{3,2,1,0} slice(reshape.829), slice={[0:32], [0:128], [0:768], [1:2]}
  reshape.834 = f32[32,128,12,64]{3,2,1,0} reshape(slice.831)
  call.858 = f32[32,128,12,64]{1,3,2,0} call(divide.857, reshape.834), to_apply=_einsum_2.141
  reshape.859 = f32[32,128,768]{2,1,0} reshape(call.858)
  Arg_7.579 = f32[768,768]{1,0} parameter(7)
  dot.860 = f32[32,128,768]{2,1,0} dot(reshape.859, Arg_7.579), lhs_contracting_dims={2}, rhs_contracting_dims={0}
  Arg_8.580 = f32[768]{0} parameter(8)
  reshape.861 = f32[1,1,768]{2,1,0} reshape(Arg_8.580)
  broadcast.862 = f32[1,1,768]{2,1,0} broadcast(reshape.861), dimensions={0,1,2}
  reshape.863 = f32[768]{0} reshape(broadcast.862)
  broadcast.864 = f32[32,128,768]{2,1,0} broadcast(reshape.863), dimensions={2}
  add.865 = f32[32,128,768]{2,1,0} add(dot.860, broadcast.864)
  add.866 = f32[32,128,768]{2,1,0} add(add.865, add.822)
  reduce.867 = f32[32,128]{1,0} reduce(add.866, constant.785), dimensions={2}, to_apply=region_4.146
  divide.868 = f32[32,128]{1,0} divide(reduce.867, broadcast.736)
  reshape.875 = f32[32,128,1]{2,1,0} reshape(divide.868)
  broadcast.877 = f32[32,128,1]{2,1,0} broadcast(reshape.875), dimensions={0,1,2}
  reshape.878 = f32[32,128]{1,0} reshape(broadcast.877)
  broadcast.879 = f32[32,128,768]{2,1,0} broadcast(reshape.878), dimensions={0,1}
  subtract.880 = f32[32,128,768]{2,1,0} subtract(add.866, broadcast.879)
  multiply.869 = f32[32,128,768]{2,1,0} multiply(add.866, add.866)
  reduce.870 = f32[32,128]{1,0} reduce(multiply.869, constant.785), dimensions={2}, to_apply=region_5.150
  divide.871 = f32[32,128]{1,0} divide(reduce.870, broadcast.736)
  multiply.872 = f32[32,128]{1,0} multiply(divide.868, divide.868)
  subtract.873 = f32[32,128]{1,0} subtract(divide.871, multiply.872)
  maximum.874 = f32[32,128]{1,0} maximum(subtract.873, broadcast.734)
  reshape.876 = f32[32,128,1]{2,1,0} reshape(maximum.874)
  add.881 = f32[32,128,1]{2,1,0} add(reshape.876, broadcast.732)
  rsqrt.882 = f32[32,128,1]{2,1,0} rsqrt(add.881)
  broadcast.884 = f32[32,128,1]{2,1,0} broadcast(rsqrt.882), dimensions={0,1,2}
  reshape.885 = f32[32,128]{1,0} reshape(broadcast.884)
  broadcast.886 = f32[32,128,768]{2,1,0} broadcast(reshape.885), dimensions={0,1}
  Arg_9.581 = f32[768]{0} parameter(9)
  reshape.883 = f32[1,1,768]{2,1,0} reshape(Arg_9.581)
  broadcast.887 = f32[1,1,768]{2,1,0} broadcast(reshape.883), dimensions={0,1,2}
  reshape.888 = f32[768]{0} reshape(broadcast.887)
  broadcast.889 = f32[32,128,768]{2,1,0} broadcast(reshape.888), dimensions={2}
  multiply.890 = f32[32,128,768]{2,1,0} multiply(broadcast.886, broadcast.889)
  multiply.891 = f32[32,128,768]{2,1,0} multiply(subtract.880, multiply.890)
  Arg_10.582 = f32[1,1,768]{2,1,0} parameter(10)
  broadcast.892 = f32[1,1,768]{2,1,0} broadcast(Arg_10.582), dimensions={0,1,2}
  reshape.893 = f32[768]{0} reshape(broadcast.892)
  broadcast.894 = f32[32,128,768]{2,1,0} broadcast(reshape.893), dimensions={2}
  add.895 = f32[32,128,768]{2,1,0} add(multiply.891, broadcast.894)
  Arg_11.583 = f32[768,3072]{1,0} parameter(11)
  dot.896 = f32[32,128,3072]{2,1,0} dot(add.895, Arg_11.583), lhs_contracting_dims={2}, rhs_contracting_dims={0}
  Arg_12.584 = f32[3072]{0} parameter(12)
  reshape.897 = f32[1,1,3072]{2,1,0} reshape(Arg_12.584)
  broadcast.898 = f32[1,1,3072]{2,1,0} broadcast(reshape.897), dimensions={0,1,2}
  reshape.899 = f32[3072]{0} reshape(broadcast.898)
  broadcast.900 = f32[32,128,3072]{2,1,0} broadcast(reshape.899), dimensions={2}
  add.901 = f32[32,128,3072]{2,1,0} add(dot.896, broadcast.900)
  constant.782 = f32[] constant(-4)
  broadcast.783 = f32[32,128,3072]{2,1,0} broadcast(constant.782), dimensions={}
  constant.741 = f32[] constant(1.41421354)
  broadcast.742 = f32[32,128,3072]{2,1,0} broadcast(constant.741), dimensions={}
  divide.902 = f32[32,128,3072]{2,1,0} divide(add.901, broadcast.742)
  constant.780 = f32[] constant(4)
  broadcast.781 = f32[32,128,3072]{2,1,0} broadcast(constant.780), dimensions={}
  clamp.903 = f32[32,128,3072]{2,1,0} clamp(broadcast.783, divide.902, broadcast.781)
  multiply.904 = f32[32,128,3072]{2,1,0} multiply(clamp.903, clamp.903)
  constant.778 = f32[] constant(0)
  broadcast.779 = f32[32,128,3072]{2,1,0} broadcast(constant.778), dimensions={}
  multiply.905 = f32[32,128,3072]{2,1,0} multiply(multiply.904, broadcast.779)
  constant.776 = f32[] constant(-2.72614237e-10)
  broadcast.777 = f32[32,128,3072]{2,1,0} broadcast(constant.776), dimensions={}
  add.906 = f32[32,128,3072]{2,1,0} add(multiply.905, broadcast.777)
  multiply.907 = f32[32,128,3072]{2,1,0} multiply(add.906, multiply.904)
  constant.774 = f32[] constant(2.77068146e-08)
  broadcast.775 = f32[32,128,3072]{2,1,0} broadcast(constant.774), dimensions={}
  add.908 = f32[32,128,3072]{2,1,0} add(multiply.907, broadcast.775)
  multiply.909 = f32[32,128,3072]{2,1,0} multiply(add.908, multiply.904)
  constant.772 = f32[] constant(-2.10102394e-06)
  broadcast.773 = f32[32,128,3072]{2,1,0} broadcast(constant.772), dimensions={}
  add.910 = f32[32,128,3072]{2,1,0} add(multiply.909, broadcast.773)
  multiply.911 = f32[32,128,3072]{2,1,0} multiply(add.910, multiply.904)
  constant.770 = f32[] constant(-5.69250624e-05)
  broadcast.771 = f32[32,128,3072]{2,1,0} broadcast(constant.770), dimensions={}
  add.912 = f32[32,128,3072]{2,1,0} add(multiply.911, broadcast.771)
  multiply.913 = f32[32,128,3072]{2,1,0} multiply(add.912, multiply.904)
  constant.768 = f32[] constant(-0.000734990637)
  broadcast.769 = f32[32,128,3072]{2,1,0} broadcast(constant.768), dimensions={}
  add.914 = f32[32,128,3072]{2,1,0} add(multiply.913, broadcast.769)
  multiply.915 = f32[32,128,3072]{2,1,0} multiply(add.914, multiply.904)
  constant.766 = f32[] constant(-0.0029546)
  broadcast.767 = f32[32,128,3072]{2,1,0} broadcast(constant.766), dimensions={}
  add.916 = f32[32,128,3072]{2,1,0} add(multiply.915, broadcast.767)
  multiply.917 = f32[32,128,3072]{2,1,0} multiply(add.916, multiply.904)
  constant.764 = f32[] constant(-0.0160960332)
  broadcast.765 = f32[32,128,3072]{2,1,0} broadcast(constant.764), dimensions={}
  add.918 = f32[32,128,3072]{2,1,0} add(multiply.917, broadcast.765)
  multiply.929 = f32[32,128,3072]{2,1,0} multiply(clamp.903, add.918)
  multiply.919 = f32[32,128,3072]{2,1,0} multiply(multiply.904, broadcast.779)
  constant.762 = f32[] constant(-1.45660715e-05)
  broadcast.763 = f32[32,128,3072]{2,1,0} broadcast(constant.762), dimensions={}
  add.920 = f32[32,128,3072]{2,1,0} add(multiply.919, broadcast.763)
  multiply.921 = f32[32,128,3072]{2,1,0} multiply(add.920, multiply.904)
  constant.760 = f32[] constant(-0.000213374049)
  broadcast.761 = f32[32,128,3072]{2,1,0} broadcast(constant.760), dimensions={}
  add.922 = f32[32,128,3072]{2,1,0} add(multiply.921, broadcast.761)
  multiply.923 = f32[32,128,3072]{2,1,0} multiply(add.922, multiply.904)
  constant.758 = f32[] constant(-0.00168282702)
  broadcast.759 = f32[32,128,3072]{2,1,0} broadcast(constant.758), dimensions={}
  add.924 = f32[32,128,3072]{2,1,0} add(multiply.923, broadcast.759)
  multiply.925 = f32[32,128,3072]{2,1,0} multiply(add.924, multiply.904)
  constant.756 = f32[] constant(-0.00737332925)
  broadcast.757 = f32[32,128,3072]{2,1,0} broadcast(constant.756), dimensions={}
  add.926 = f32[32,128,3072]{2,1,0} add(multiply.925, broadcast.757)
  multiply.927 = f32[32,128,3072]{2,1,0} multiply(add.926, multiply.904)
  constant.754 = f32[] constant(-0.0142647391)
  broadcast.755 = f32[32,128,3072]{2,1,0} broadcast(constant.754), dimensions={}
  add.928 = f32[32,128,3072]{2,1,0} add(multiply.927, broadcast.755)
  divide.930 = f32[32,128,3072]{2,1,0} divide(multiply.929, add.928)
  constant.739 = f32[] constant(1)
  broadcast.740 = f32[32,128,3072]{2,1,0} broadcast(constant.739), dimensions={}
  add.931 = f32[32,128,3072]{2,1,0} add(divide.930, broadcast.740)
  multiply.932 = f32[32,128,3072]{2,1,0} multiply(add.901, add.931)
  constant.737 = f32[] constant(2)
  broadcast.738 = f32[32,128,3072]{2,1,0} broadcast(constant.737), dimensions={}
  divide.933 = f32[32,128,3072]{2,1,0} divide(multiply.932, broadcast.738)
  Arg_13.585 = f32[3072,768]{1,0} parameter(13)
  dot.934 = f32[32,128,768]{2,1,0} dot(divide.933, Arg_13.585), lhs_contracting_dims={2}, rhs_contracting_dims={0}
  Arg_14.586 = f32[768]{0} parameter(14)
  reshape.935 = f32[1,1,768]{2,1,0} reshape(Arg_14.586)
  broadcast.936 = f32[1,1,768]{2,1,0} broadcast(reshape.935), dimensions={0,1,2}
  reshape.937 = f32[768]{0} reshape(broadcast.936)
  broadcast.938 = f32[32,128,768]{2,1,0} broadcast(reshape.937), dimensions={2}
  add.939 = f32[32,128,768]{2,1,0} add(dot.934, broadcast.938)
  add.940 = f32[32,128,768]{2,1,0} add(add.939, add.895)
  reduce.941 = f32[32,128]{1,0} reduce(add.940, constant.785), dimensions={2}, to_apply=region_6.154
  divide.942 = f32[32,128]{1,0} divide(reduce.941, broadcast.736)
  reshape.949 = f32[32,128,1]{2,1,0} reshape(divide.942)
  broadcast.951 = f32[32,128,1]{2,1,0} broadcast(reshape.949), dimensions={0,1,2}
  reshape.952 = f32[32,128]{1,0} reshape(broadcast.951)
  broadcast.953 = f32[32,128,768]{2,1,0} broadcast(reshape.952), dimensions={0,1}
  subtract.954 = f32[32,128,768]{2,1,0} subtract(add.940, broadcast.953)
  multiply.943 = f32[32,128,768]{2,1,0} multiply(add.940, add.940)
  reduce.944 = f32[32,128]{1,0} reduce(multiply.943, constant.785), dimensions={2}, to_apply=region_7.158
  divide.945 = f32[32,128]{1,0} divide(reduce.944, broadcast.736)
  multiply.946 = f32[32,128]{1,0} multiply(divide.942, divide.942)
  subtract.947 = f32[32,128]{1,0} subtract(divide.945, multiply.946)
  maximum.948 = f32[32,128]{1,0} maximum(subtract.947, broadcast.734)
  reshape.950 = f32[32,128,1]{2,1,0} reshape(maximum.948)
  add.955 = f32[32,128,1]{2,1,0} add(reshape.950, broadcast.732)
  rsqrt.956 = f32[32,128,1]{2,1,0} rsqrt(add.955)
  broadcast.958 = f32[32,128,1]{2,1,0} broadcast(rsqrt.956), dimensions={0,1,2}
  reshape.959 = f32[32,128]{1,0} reshape(broadcast.958)
  broadcast.960 = f32[32,128,768]{2,1,0} broadcast(reshape.959), dimensions={0,1}
  Arg_15.587 = f32[768]{0} parameter(15)
  reshape.957 = f32[1,1,768]{2,1,0} reshape(Arg_15.587)
  broadcast.961 = f32[1,1,768]{2,1,0} broadcast(reshape.957), dimensions={0,1,2}
  reshape.962 = f32[768]{0} reshape(broadcast.961)
  broadcast.963 = f32[32,128,768]{2,1,0} broadcast(reshape.962), dimensions={2}
  multiply.964 = f32[32,128,768]{2,1,0} multiply(broadcast.960, broadcast.963)
  multiply.965 = f32[32,128,768]{2,1,0} multiply(subtract.954, multiply.964)
  Arg_16.588 = f32[1,1,768]{2,1,0} parameter(16)
  broadcast.966 = f32[1,1,768]{2,1,0} broadcast(Arg_16.588), dimensions={0,1,2}
  reshape.967 = f32[768]{0} reshape(broadcast.966)
  broadcast.968 = f32[32,128,768]{2,1,0} broadcast(reshape.967), dimensions={2}
  add.969 = f32[32,128,768]{2,1,0} add(multiply.965, broadcast.968)
  Arg_17.589 = f32[768,2304]{1,0} parameter(17)
  dot.970 = f32[32,128,2304]{2,1,0} dot(add.969, Arg_17.589), lhs_contracting_dims={2}, rhs_contracting_dims={0}
  Arg_18.590 = f32[2304]{0} parameter(18)
  reshape.971 = f32[1,1,2304]{2,1,0} reshape(Arg_18.590)
  broadcast.972 = f32[1,1,2304]{2,1,0} broadcast(reshape.971), dimensions={0,1,2}
  reshape.973 = f32[2304]{0} reshape(broadcast.972)
  broadcast.974 = f32[32,128,2304]{2,1,0} broadcast(reshape.973), dimensions={2}
  add.975 = f32[32,128,2304]{2,1,0} add(dot.970, broadcast.974)
  reshape.976 = f32[32,128,768,3]{3,2,1,0} reshape(add.975)
  slice.977 = f32[32,128,768,1]{3,2,1,0} slice(reshape.976), slice={[0:32], [0:128], [0:768], [0:1]}
  reshape.980 = f32[32,128,12,64]{3,2,1,0} reshape(slice.977)
  divide.986 = f32[32,128,12,64]{3,2,1,0} divide(reshape.980, broadcast.744)
  slice.979 = f32[32,128,768,1]{3,2,1,0} slice(reshape.976), slice={[0:32], [0:128], [0:768], [2:3]}
  reshape.982 = f32[32,128,12,64]{3,2,1,0} reshape(slice.979)
  call.987 = f32[32,12,128,128]{3,2,1,0} call(divide.986, reshape.982), to_apply=_einsum_3.162
  reshape.983 = s32[32,1,1,128]{3,2,1,0} reshape(Arg_154.726)
  compare.984 = pred[32,1,1,128]{3,2,1,0} compare(reshape.983, broadcast.750), direction=GT
  select.985 = f32[32,1,1,128]{3,2,1,0} select(compare.984, broadcast.748, broadcast.746)
  broadcast.988 = f32[32,1,1,128]{3,2,1,0} broadcast(select.985), dimensions={0,1,2,3}
  reshape.989 = f32[32,128]{1,0} reshape(broadcast.988)
  broadcast.990 = f32[32,12,128,128]{3,2,1,0} broadcast(reshape.989), dimensions={0,3}
  add.991 = f32[32,12,128,128]{3,2,1,0} add(call.987, broadcast.990)
  reduce.992 = f32[32,12,128]{2,1,0} reduce(add.991, constant.784), dimensions={3}, to_apply=region_8.166
  reshape.993 = f32[32,12,128,1]{3,2,1,0} reshape(reduce.992)
  broadcast.994 = f32[32,12,128,1]{3,2,1,0} broadcast(reshape.993), dimensions={0,1,2,3}
  reshape.995 = f32[32,12,128]{2,1,0} reshape(broadcast.994)
  broadcast.996 = f32[32,12,128,128]{3,2,1,0} broadcast(reshape.995), dimensions={0,1,2}
  subtract.997 = f32[32,12,128,128]{3,2,1,0} subtract(add.991, broadcast.996)
  exponential.998 = f32[32,12,128,128]{3,2,1,0} exponential(subtract.997)
  reduce.999 = f32[32,12,128]{2,1,0} reduce(exponential.998, constant.785), dimensions={3}, to_apply=region_9.170
  reshape.1000 = f32[32,12,128,1]{3,2,1,0} reshape(reduce.999)
  broadcast.1001 = f32[32,12,128,1]{3,2,1,0} broadcast(reshape.1000), dimensions={0,1,2,3}
  reshape.1002 = f32[32,12,128]{2,1,0} reshape(broadcast.1001)
  broadcast.1003 = f32[32,12,128,128]{3,2,1,0} broadcast(reshape.1002), dimensions={0,1,2}
  divide.1004 = f32[32,12,128,128]{3,2,1,0} divide(exponential.998, broadcast.1003)
  slice.978 = f32[32,128,768,1]{3,2,1,0} slice(reshape.976), slice={[0:32], [0:128], [0:768], [1:2]}
  reshape.981 = f32[32,128,12,64]{3,2,1,0} reshape(slice.978)
  call.1005 = f32[32,128,12,64]{1,3,2,0} call(divide.1004, reshape.981), to_apply=_einsum_4.174
  reshape.1006 = f32[32,128,768]{2,1,0} reshape(call.1005)
  Arg_19.591 = f32[768,768]{1,0} parameter(19)
  dot.1007 = f32[32,128,768]{2,1,0} dot(reshape.1006, Arg_19.591), lhs_contracting_dims={2}, rhs_contracting_dims={0}
  Arg_20.592 = f32[768]{0} parameter(20)
  reshape.1008 = f32[1,1,768]{2,1,0} reshape(Arg_20.592)
  broadcast.1009 = f32[1,1,768]{2,1,0} broadcast(reshape.1008), dimensions={0,1,2}
  reshape.1010 = f32[768]{0} reshape(broadcast.1009)
  broadcast.1011 = f32[32,128,768]{2,1,0} broadcast(reshape.1010), dimensions={2}
  add.1012 = f32[32,128,768]{2,1,0} add(dot.1007, broadcast.1011)
  add.1013 = f32[32,128,768]{2,1,0} add(add.1012, add.969)
  reduce.1014 = f32[32,128]{1,0} reduce(add.1013, constant.785), dimensions={2}, to_apply=region_10.179
  divide.1015 = f32[32,128]{1,0} divide(reduce.1014, broadcast.736)
  reshape.1022 = f32[32,128,1]{2,1,0} reshape(divide.1015)
  broadcast.1024 = f32[32,128,1]{2,1,0} broadcast(reshape.1022), dimensions={0,1,2}
  reshape.1025 = f32[32,128]{1,0} reshape(broadcast.1024)
  broadcast.1026 = f32[32,128,768]{2,1,0} broadcast(reshape.1025), dimensions={0,1}
  subtract.1027 = f32[32,128,768]{2,1,0} subtract(add.1013, broadcast.1026)
  multiply.1016 = f32[32,128,768]{2,1,0} multiply(add.1013, add.1013)
  reduce.1017 = f32[32,128]{1,0} reduce(multiply.1016, constant.785), dimensions={2}, to_apply=region_11.183
  divide.1018 = f32[32,128]{1,0} divide(reduce.1017, broadcast.736)
  multiply.1019 = f32[32,128]{1,0} multiply(divide.1015, divide.1015)
  subtract.1020 = f32[32,128]{1,0} subtract(divide.1018, multiply.1019)
  maximum.1021 = f32[32,128]{1,0} maximum(subtract.1020, broadcast.734)
  reshape.1023 = f32[32,128,1]{2,1,0} reshape(maximum.1021)
  add.1028 = f32[32,128,1]{2,1,0} add(reshape.1023, broadcast.732)
  rsqrt.1029 = f32[32,128,1]{2,1,0} rsqrt(add.1028)
  broadcast.1031 = f32[32,128,1]{2,1,0} broadcast(rsqrt.1029), dimensions={0,1,2}
  reshape.1032 = f32[32,128]{1,0} reshape(broadcast.1031)
  broadcast.1033 = f32[32,128,768]{2,1,0} broadcast(reshape.1032), dimensions={0,1}
  Arg_21.593 = f32[768]{0} parameter(21)
  reshape.1030 = f32[1,1,768]{2,1,0} reshape(Arg_21.593)
  broadcast.1034 = f32[1,1,768]{2,1,0} broadcast(reshape.1030), dimensions={0,1,2}
  reshape.1035 = f32[768]{0} reshape(broadcast.1034)
  broadcast.1036 = f32[32,128,768]{2,1,0} broadcast(reshape.1035), dimensions={2}
  multiply.1037 = f32[32,128,768]{2,1,0} multiply(broadcast.1033, broadcast.1036)
  multiply.1038 = f32[32,128,768]{2,1,0} multiply(subtract.1027, multiply.1037)
  Arg_22.594 = f32[1,1,768]{2,1,0} parameter(22)
  broadcast.1039 = f32[1,1,768]{2,1,0} broadcast(Arg_22.594), dimensions={0,1,2}
  reshape.1040 = f32[768]{0} reshape(broadcast.1039)
  broadcast.1041 = f32[32,128,768]{2,1,0} broadcast(reshape.1040), dimensions={2}
  add.1042 = f32[32,128,768]{2,1,0} add(multiply.1038, broadcast.1041)
  Arg_23.595 = f32[768,3072]{1,0} parameter(23)
  dot.1043 = f32[32,128,3072]{2,1,0} dot(add.1042, Arg_23.595), lhs_contracting_dims={2}, rhs_contracting_dims={0}
  Arg_24.596 = f32[3072]{0} parameter(24)
  reshape.1044 = f32[1,1,3072]{2,1,0} reshape(Arg_24.596)
  broadcast.1045 = f32[1,1,3072]{2,1,0} broadcast(reshape.1044), dimensions={0,1,2}
  reshape.1046 = f32[3072]{0} reshape(broadcast.1045)
  broadcast.1047 = f32[32,128,3072]{2,1,0} broadcast(reshape.1046), dimensions={2}
  add.1048 = f32[32,128,3072]{2,1,0} add(dot.1043, broadcast.1047)
  divide.1049 = f32[32,128,3072]{2,1,0} divide(add.1048, broadcast.742)
  clamp.1050 = f32[32,128,3072]{2,1,0} clamp(broadcast.783, divide.1049, broadcast.781)
  multiply.1051 = f32[32,128,3072]{2,1,0} multiply(clamp.1050, clamp.1050)
  multiply.1052 = f32[32,128,3072]{2,1,0} multiply(multiply.1051, broadcast.779)
  add.1053 = f32[32,128,3072]{2,1,0} add(multiply.1052, broadcast.777)
  multiply.1054 = f32[32,128,3072]{2,1,0} multiply(add.1053, multiply.1051)
  add.1055 = f32[32,128,3072]{2,1,0} add(multiply.1054, broadcast.775)
  multiply.1056 = f32[32,128,3072]{2,1,0} multiply(add.1055, multiply.1051)
  add.1057 = f32[32,128,3072]{2,1,0} add(multiply.1056, broadcast.773)
  multiply.1058 = f32[32,128,3072]{2,1,0} multiply(add.1057, multiply.1051)
  add.1059 = f32[32,128,3072]{2,1,0} add(multiply.1058, broadcast.771)
  multiply.1060 = f32[32,128,3072]{2,1,0} multiply(add.1059, multiply.1051)
  add.1061 = f32[32,128,3072]{2,1,0} add(multiply.1060, broadcast.769)
  multiply.1062 = f32[32,128,3072]{2,1,0} multiply(add.1061, multiply.1051)
  add.1063 = f32[32,128,3072]{2,1,0} add(multiply.1062, broadcast.767)
  multiply.1064 = f32[32,128,3072]{2,1,0} multiply(add.1063, multiply.1051)
  add.1065 = f32[32,128,3072]{2,1,0} add(multiply.1064, broadcast.765)
  multiply.1076 = f32[32,128,3072]{2,1,0} multiply(clamp.1050, add.1065)
  multiply.1066 = f32[32,128,3072]{2,1,0} multiply(multiply.1051, broadcast.779)
  add.1067 = f32[32,128,3072]{2,1,0} add(multiply.1066, broadcast.763)
  multiply.1068 = f32[32,128,3072]{2,1,0} multiply(add.1067, multiply.1051)
  add.1069 = f32[32,128,3072]{2,1,0} add(multiply.1068, broadcast.761)
  multiply.1070 = f32[32,128,3072]{2,1,0} multiply(add.1069, multiply.1051)
  add.1071 = f32[32,128,3072]{2,1,0} add(multiply.1070, broadcast.759)
  multiply.1072 = f32[32,128,3072]{2,1,0} multiply(add.1071, multiply.1051)
  add.1073 = f32[32,128,3072]{2,1,0} add(multiply.1072, broadcast.757)
  multiply.1074 = f32[32,128,3072]{2,1,0} multiply(add.1073, multiply.1051)
  add.1075 = f32[32,128,3072]{2,1,0} add(multiply.1074, broadcast.755)
  divide.1077 = f32[32,128,3072]{2,1,0} divide(multiply.1076, add.1075)
  add.1078 = f32[32,128,3072]{2,1,0} add(divide.1077, broadcast.740)
  multiply.1079 = f32[32,128,3072]{2,1,0} multiply(add.1048, add.1078)
  divide.1080 = f32[32,128,3072]{2,1,0} divide(multiply.1079, broadcast.738)
  Arg_25.597 = f32[3072,768]{1,0} parameter(25)
  dot.1081 = f32[32,128,768]{2,1,0} dot(divide.1080, Arg_25.597), lhs_contracting_dims={2}, rhs_contracting_dims={0}
  Arg_26.598 = f32[768]{0} parameter(26)
  reshape.1082 = f32[1,1,768]{2,1,0} reshape(Arg_26.598)
  broadcast.1083 = f32[1,1,768]{2,1,0} broadcast(reshape.1082), dimensions={0,1,2}
  reshape.1084 = f32[768]{0} reshape(broadcast.1083)
  broadcast.1085 = f32[32,128,768]{2,1,0} broadcast(reshape.1084), dimensions={2}
  add.1086 = f32[32,128,768]{2,1,0} add(dot.1081, broadcast.1085)
  add.1087 = f32[32,128,768]{2,1,0} add(add.1086, add.1042)
  reduce.1088 = f32[32,128]{1,0} reduce(add.1087, constant.785), dimensions={2}, to_apply=region_12.187
  divide.1089 = f32[32,128]{1,0} divide(reduce.1088, broadcast.736)
  reshape.1096 = f32[32,128,1]{2,1,0} reshape(divide.1089)
  broadcast.1098 = f32[32,128,1]{2,1,0} broadcast(reshape.1096), dimensions={0,1,2}
  reshape.1099 = f32[32,128]{1,0} reshape(broadcast.1098)
  broadcast.1100 = f32[32,128,768]{2,1,0} broadcast(reshape.1099), dimensions={0,1}
  subtract.1101 = f32[32,128,768]{2,1,0} subtract(add.1087, broadcast.1100)
  multiply.1090 = f32[32,128,768]{2,1,0} multiply(add.1087, add.1087)
  reduce.1091 = f32[32,128]{1,0} reduce(multiply.1090, constant.785), dimensions={2}, to_apply=region_13.191
  divide.1092 = f32[32,128]{1,0} divide(reduce.1091, broadcast.736)
  multiply.1093 = f32[32,128]{1,0} multiply(divide.1089, divide.1089)
  subtract.1094 = f32[32,128]{1,0} subtract(divide.1092, multiply.1093)
  maximum.1095 = f32[32,128]{1,0} maximum(subtract.1094, broadcast.734)
  reshape.1097 = f32[32,128,1]{2,1,0} reshape(maximum.1095)
  add.1102 = f32[32,128,1]{2,1,0} add(reshape.1097, broadcast.732)
  rsqrt.1103 = f32[32,128,1]{2,1,0} rsqrt(add.1102)
  broadcast.1105 = f32[32,128,1]{2,1,0} broadcast(rsqrt.1103), dimensions={0,1,2}
  reshape.1106 = f32[32,128]{1,0} reshape(broadcast.1105)
  broadcast.1107 = f32[32,128,768]{2,1,0} broadcast(reshape.1106), dimensions={0,1}
  Arg_27.599 = f32[768]{0} parameter(27)
  reshape.1104 = f32[1,1,768]{2,1,0} reshape(Arg_27.599)
  broadcast.1108 = f32[1,1,768]{2,1,0} broadcast(reshape.1104), dimensions={0,1,2}
  reshape.1109 = f32[768]{0} reshape(broadcast.1108)
  broadcast.1110 = f32[32,128,768]{2,1,0} broadcast(reshape.1109), dimensions={2}
  multiply.1111 = f32[32,128,768]{2,1,0} multiply(broadcast.1107, broadcast.1110)
  multiply.1112 = f32[32,128,768]{2,1,0} multiply(subtract.1101, multiply.1111)
  Arg_28.600 = f32[1,1,768]{2,1,0} parameter(28)
  broadcast.1113 = f32[1,1,768]{2,1,0} broadcast(Arg_28.600), dimensions={0,1,2}
  reshape.1114 = f32[768]{0} reshape(broadcast.1113)
  broadcast.1115 = f32[32,128,768]{2,1,0} broadcast(reshape.1114), dimensions={2}
  add.1116 = f32[32,128,768]{2,1,0} add(multiply.1112, broadcast.1115)
  Arg_29.601 = f32[768,2304]{1,0} parameter(29)
  dot.1117 = f32[32,128,2304]{2,1,0} dot(add.1116, Arg_29.601), lhs_contracting_dims={2}, rhs_contracting_dims={0}
  Arg_30.602 = f32[2304]{0} parameter(30)
  reshape.1118 = f32[1,1,2304]{2,1,0} reshape(Arg_30.602)
  broadcast.1119 = f32[1,1,2304]{2,1,0} broadcast(reshape.1118), dimensions={0,1,2}
  reshape.1120 = f32[2304]{0} reshape(broadcast.1119)
  broadcast.1121 = f32[32,128,2304]{2,1,0} broadcast(reshape.1120), dimensions={2}
  add.1122 = f32[32,128,2304]{2,1,0} add(dot.1117, broadcast.1121)
  reshape.1123 = f32[32,128,768,3]{3,2,1,0} reshape(add.1122)
  slice.1124 = f32[32,128,768,1]{3,2,1,0} slice(reshape.1123), slice={[0:32], [0:128], [0:768], [0:1]}
  reshape.1127 = f32[32,128,12,64]{3,2,1,0} reshape(slice.1124)
  divide.1133 = f32[32,128,12,64]{3,2,1,0} divide(reshape.1127, broadcast.744)
  slice.1126 = f32[32,128,768,1]{3,2,1,0} slice(reshape.1123), slice={[0:32], [0:128], [0:768], [2:3]}
  reshape.1129 = f32[32,128,12,64]{3,2,1,0} reshape(slice.1126)
  call.1134 = f32[32,12,128,128]{3,2,1,0} call(divide.1133, reshape.1129), to_apply=_einsum_5.195
  reshape.1130 = s32[32,1,1,128]{3,2,1,0} reshape(Arg_154.726)
  compare.1131 = pred[32,1,1,128]{3,2,1,0} compare(reshape.1130, broadcast.750), direction=GT
  select.1132 = f32[32,1,1,128]{3,2,1,0} select(compare.1131, broadcast.748, broadcast.746)
  broadcast.1135 = f32[32,1,1,128]{3,2,1,0} broadcast(select.1132), dimensions={0,1,2,3}
  reshape.1136 = f32[32,128]{1,0} reshape(broadcast.1135)
  broadcast.1137 = f32[32,12,128,128]{3,2,1,0} broadcast(reshape.1136), dimensions={0,3}
  add.1138 = f32[32,12,128,128]{3,2,1,0} add(call.1134, broadcast.1137)
  reduce.1139 = f32[32,12,128]{2,1,0} reduce(add.1138, constant.784), dimensions={3}, to_apply=region_14.199
  reshape.1140 = f32[32,12,128,1]{3,2,1,0} reshape(reduce.1139)
  broadcast.1141 = f32[32,12,128,1]{3,2,1,0} broadcast(reshape.1140), dimensions={0,1,2,3}
  reshape.1142 = f32[32,12,128]{2,1,0} reshape(broadcast.1141)
  broadcast.1143 = f32[32,12,128,128]{3,2,1,0} broadcast(reshape.1142), dimensions={0,1,2}
  subtract.1144 = f32[32,12,128,128]{3,2,1,0} subtract(add.1138, broadcast.1143)
  exponential.1145 = f32[32,12,128,128]{3,2,1,0} exponential(subtract.1144)
  reduce.1146 = f32[32,12,128]{2,1,0} reduce(exponential.1145, constant.785), dimensions={3}, to_apply=region_15.203
  reshape.1147 = f32[32,12,128,1]{3,2,1,0} reshape(reduce.1146)
  broadcast.1148 = f32[32,12,128,1]{3,2,1,0} broadcast(reshape.1147), dimensions={0,1,2,3}
  reshape.1149 = f32[32,12,128]{2,1,0} reshape(broadcast.1148)
  broadcast.1150 = f32[32,12,128,128]{3,2,1,0} broadcast(reshape.1149), dimensions={0,1,2}
  divide.1151 = f32[32,12,128,128]{3,2,1,0} divide(exponential.1145, broadcast.1150)
  slice.1125 = f32[32,128,768,1]{3,2,1,0} slice(reshape.1123), slice={[0:32], [0:128], [0:768], [1:2]}
  reshape.1128 = f32[32,128,12,64]{3,2,1,0} reshape(slice.1125)
  call.1152 = f32[32,128,12,64]{1,3,2,0} call(divide.1151, reshape.1128), to_apply=_einsum_6.207
  reshape.1153 = f32[32,128,768]{2,1,0} reshape(call.1152)
  Arg_31.603 = f32[768,768]{1,0} parameter(31)
  dot.1154 = f32[32,128,768]{2,1,0} dot(reshape.1153, Arg_31.603), lhs_contracting_dims={2}, rhs_contracting_dims={0}
  Arg_32.604 = f32[768]{0} parameter(32)
  reshape.1155 = f32[1,1,768]{2,1,0} reshape(Arg_32.604)
  broadcast.1156 = f32[1,1,768]{2,1,0} broadcast(reshape.1155), dimensions={0,1,2}
  reshape.1157 = f32[768]{0} reshape(broadcast.1156)
  broadcast.1158 = f32[32,128,768]{2,1,0} broadcast(reshape.1157), dimensions={2}
  add.1159 = f32[32,128,768]{2,1,0} add(dot.1154, broadcast.1158)
  add.1160 = f32[32,128,768]{2,1,0} add(add.1159, add.1116)
  reduce.1161 = f32[32,128]{1,0} reduce(add.1160, constant.785), dimensions={2}, to_apply=region_16.212
  divide.1162 = f32[32,128]{1,0} divide(reduce.1161, broadcast.736)
  reshape.1169 = f32[32,128,1]{2,1,0} reshape(divide.1162)
  broadcast.1171 = f32[32,128,1]{2,1,0} broadcast(reshape.1169), dimensions={0,1,2}
  reshape.1172 = f32[32,128]{1,0} reshape(broadcast.1171)
  broadcast.1173 = f32[32,128,768]{2,1,0} broadcast(reshape.1172), dimensions={0,1}
  subtract.1174 = f32[32,128,768]{2,1,0} subtract(add.1160, broadcast.1173)
  multiply.1163 = f32[32,128,768]{2,1,0} multiply(add.1160, add.1160)
  reduce.1164 = f32[32,128]{1,0} reduce(multiply.1163, constant.785), dimensions={2}, to_apply=region_17.216
  divide.1165 = f32[32,128]{1,0} divide(reduce.1164, broadcast.736)
  multiply.1166 = f32[32,128]{1,0} multiply(divide.1162, divide.1162)
  subtract.1167 = f32[32,128]{1,0} subtract(divide.1165, multiply.1166)
  maximum.1168 = f32[32,128]{1,0} maximum(subtract.1167, broadcast.734)
  reshape.1170 = f32[32,128,1]{2,1,0} reshape(maximum.1168)
  add.1175 = f32[32,128,1]{2,1,0} add(reshape.1170, broadcast.732)
  rsqrt.1176 = f32[32,128,1]{2,1,0} rsqrt(add.1175)
  broadcast.1178 = f32[32,128,1]{2,1,0} broadcast(rsqrt.1176), dimensions={0,1,2}
  reshape.1179 = f32[32,128]{1,0} reshape(broadcast.1178)
  broadcast.1180 = f32[32,128,768]{2,1,0} broadcast(reshape.1179), dimensions={0,1}
  Arg_33.605 = f32[768]{0} parameter(33)
  reshape.1177 = f32[1,1,768]{2,1,0} reshape(Arg_33.605)
  broadcast.1181 = f32[1,1,768]{2,1,0} broadcast(reshape.1177), dimensions={0,1,2}
  reshape.1182 = f32[768]{0} reshape(broadcast.1181)
  broadcast.1183 = f32[32,128,768]{2,1,0} broadcast(reshape.1182), dimensions={2}
  multiply.1184 = f32[32,128,768]{2,1,0} multiply(broadcast.1180, broadcast.1183)
  multiply.1185 = f32[32,128,768]{2,1,0} multiply(subtract.1174, multiply.1184)
  Arg_34.606 = f32[1,1,768]{2,1,0} parameter(34)
  broadcast.1186 = f32[1,1,768]{2,1,0} broadcast(Arg_34.606), dimensions={0,1,2}
  reshape.1187 = f32[768]{0} reshape(broadcast.1186)
  broadcast.1188 = f32[32,128,768]{2,1,0} broadcast(reshape.1187), dimensions={2}
  add.1189 = f32[32,128,768]{2,1,0} add(multiply.1185, broadcast.1188)
  Arg_35.607 = f32[768,3072]{1,0} parameter(35)
  dot.1190 = f32[32,128,3072]{2,1,0} dot(add.1189, Arg_35.607), lhs_contracting_dims={2}, rhs_contracting_dims={0}
  Arg_36.608 = f32[3072]{0} parameter(36)
  reshape.1191 = f32[1,1,3072]{2,1,0} reshape(Arg_36.608)
  broadcast.1192 = f32[1,1,3072]{2,1,0} broadcast(reshape.1191), dimensions={0,1,2}
  reshape.1193 = f32[3072]{0} reshape(broadcast.1192)
  broadcast.1194 = f32[32,128,3072]{2,1,0} broadcast(reshape.1193), dimensions={2}
  add.1195 = f32[32,128,3072]{2,1,0} add(dot.1190, broadcast.1194)
  divide.1196 = f32[32,128,3072]{2,1,0} divide(add.1195, broadcast.742)
  clamp.1197 = f32[32,128,3072]{2,1,0} clamp(broadcast.783, divide.1196, broadcast.781)
  multiply.1198 = f32[32,128,3072]{2,1,0} multiply(clamp.1197, clamp.1197)
  multiply.1199 = f32[32,128,3072]{2,1,0} multiply(multiply.1198, broadcast.779)
  add.1200 = f32[32,128,3072]{2,1,0} add(multiply.1199, broadcast.777)
  multiply.1201 = f32[32,128,3072]{2,1,0} multiply(add.1200, multiply.1198)
  add.1202 = f32[32,128,3072]{2,1,0} add(multiply.1201, broadcast.775)
  multiply.1203 = f32[32,128,3072]{2,1,0} multiply(add.1202, multiply.1198)
  add.1204 = f32[32,128,3072]{2,1,0} add(multiply.1203, broadcast.773)
  multiply.1205 = f32[32,128,3072]{2,1,0} multiply(add.1204, multiply.1198)
  add.1206 = f32[32,128,3072]{2,1,0} add(multiply.1205, broadcast.771)
  multiply.1207 = f32[32,128,3072]{2,1,0} multiply(add.1206, multiply.1198)
  add.1208 = f32[32,128,3072]{2,1,0} add(multiply.1207, broadcast.769)
  multiply.1209 = f32[32,128,3072]{2,1,0} multiply(add.1208, multiply.1198)
  add.1210 = f32[32,128,3072]{2,1,0} add(multiply.1209, broadcast.767)
  multiply.1211 = f32[32,128,3072]{2,1,0} multiply(add.1210, multiply.1198)
  add.1212 = f32[32,128,3072]{2,1,0} add(multiply.1211, broadcast.765)
  multiply.1223 = f32[32,128,3072]{2,1,0} multiply(clamp.1197, add.1212)
  multiply.1213 = f32[32,128,3072]{2,1,0} multiply(multiply.1198, broadcast.779)
  add.1214 = f32[32,128,3072]{2,1,0} add(multiply.1213, broadcast.763)
  multiply.1215 = f32[32,128,3072]{2,1,0} multiply(add.1214, multiply.1198)
  add.1216 = f32[32,128,3072]{2,1,0} add(multiply.1215, broadcast.761)
  multiply.1217 = f32[32,128,3072]{2,1,0} multiply(add.1216, multiply.1198)
  add.1218 = f32[32,128,3072]{2,1,0} add(multiply.1217, broadcast.759)
  multiply.1219 = f32[32,128,3072]{2,1,0} multiply(add.1218, multiply.1198)
  add.1220 = f32[32,128,3072]{2,1,0} add(multiply.1219, broadcast.757)
  multiply.1221 = f32[32,128,3072]{2,1,0} multiply(add.1220, multiply.1198)
  add.1222 = f32[32,128,3072]{2,1,0} add(multiply.1221, broadcast.755)
  divide.1224 = f32[32,128,3072]{2,1,0} divide(multiply.1223, add.1222)
  add.1225 = f32[32,128,3072]{2,1,0} add(divide.1224, broadcast.740)
  multiply.1226 = f32[32,128,3072]{2,1,0} multiply(add.1195, add.1225)
  divide.1227 = f32[32,128,3072]{2,1,0} divide(multiply.1226, broadcast.738)
  Arg_37.609 = f32[3072,768]{1,0} parameter(37)
  dot.1228 = f32[32,128,768]{2,1,0} dot(divide.1227, Arg_37.609), lhs_contracting_dims={2}, rhs_contracting_dims={0}
  Arg_38.610 = f32[768]{0} parameter(38)
  reshape.1229 = f32[1,1,768]{2,1,0} reshape(Arg_38.610)
  broadcast.1230 = f32[1,1,768]{2,1,0} broadcast(reshape.1229), dimensions={0,1,2}
  reshape.1231 = f32[768]{0} reshape(broadcast.1230)
  broadcast.1232 = f32[32,128,768]{2,1,0} broadcast(reshape.1231), dimensions={2}
  add.1233 = f32[32,128,768]{2,1,0} add(dot.1228, broadcast.1232)
  add.1234 = f32[32,128,768]{2,1,0} add(add.1233, add.1189)
  reduce.1235 = f32[32,128]{1,0} reduce(add.1234, constant.785), dimensions={2}, to_apply=region_18.220
  divide.1236 = f32[32,128]{1,0} divide(reduce.1235, broadcast.736)
  reshape.1243 = f32[32,128,1]{2,1,0} reshape(divide.1236)
  broadcast.1245 = f32[32,128,1]{2,1,0} broadcast(reshape.1243), dimensions={0,1,2}
  reshape.1246 = f32[32,128]{1,0} reshape(broadcast.1245)
  broadcast.1247 = f32[32,128,768]{2,1,0} broadcast(reshape.1246), dimensions={0,1}
  subtract.1248 = f32[32,128,768]{2,1,0} subtract(add.1234, broadcast.1247)
  multiply.1237 = f32[32,128,768]{2,1,0} multiply(add.1234, add.1234)
  reduce.1238 = f32[32,128]{1,0} reduce(multiply.1237, constant.785), dimensions={2}, to_apply=region_19.224
  divide.1239 = f32[32,128]{1,0} divide(reduce.1238, broadcast.736)
  multiply.1240 = f32[32,128]{1,0} multiply(divide.1236, divide.1236)
  subtract.1241 = f32[32,128]{1,0} subtract(divide.1239, multiply.1240)
  maximum.1242 = f32[32,128]{1,0} maximum(subtract.1241, broadcast.734)
  reshape.1244 = f32[32,128,1]{2,1,0} reshape(maximum.1242)
  add.1249 = f32[32,128,1]{2,1,0} add(reshape.1244, broadcast.732)
  rsqrt.1250 = f32[32,128,1]{2,1,0} rsqrt(add.1249)
  broadcast.1252 = f32[32,128,1]{2,1,0} broadcast(rsqrt.1250), dimensions={0,1,2}
  reshape.1253 = f32[32,128]{1,0} reshape(broadcast.1252)
  broadcast.1254 = f32[32,128,768]{2,1,0} broadcast(reshape.1253), dimensions={0,1}
  Arg_39.611 = f32[768]{0} parameter(39)
  reshape.1251 = f32[1,1,768]{2,1,0} reshape(Arg_39.611)
  broadcast.1255 = f32[1,1,768]{2,1,0} broadcast(reshape.1251), dimensions={0,1,2}
  reshape.1256 = f32[768]{0} reshape(broadcast.1255)
  broadcast.1257 = f32[32,128,768]{2,1,0} broadcast(reshape.1256), dimensions={2}
  multiply.1258 = f32[32,128,768]{2,1,0} multiply(broadcast.1254, broadcast.1257)
  multiply.1259 = f32[32,128,768]{2,1,0} multiply(subtract.1248, multiply.1258)
  Arg_40.612 = f32[1,1,768]{2,1,0} parameter(40)
  broadcast.1260 = f32[1,1,768]{2,1,0} broadcast(Arg_40.612), dimensions={0,1,2}
  reshape.1261 = f32[768]{0} reshape(broadcast.1260)
  broadcast.1262 = f32[32,128,768]{2,1,0} broadcast(reshape.1261), dimensions={2}
  add.1263 = f32[32,128,768]{2,1,0} add(multiply.1259, broadcast.1262)
  Arg_41.613 = f32[768,2304]{1,0} parameter(41)
  dot.1264 = f32[32,128,2304]{2,1,0} dot(add.1263, Arg_41.613), lhs_contracting_dims={2}, rhs_contracting_dims={0}
  Arg_42.614 = f32[2304]{0} parameter(42)
  reshape.1265 = f32[1,1,2304]{2,1,0} reshape(Arg_42.614)
  broadcast.1266 = f32[1,1,2304]{2,1,0} broadcast(reshape.1265), dimensions={0,1,2}
  reshape.1267 = f32[2304]{0} reshape(broadcast.1266)
  broadcast.1268 = f32[32,128,2304]{2,1,0} broadcast(reshape.1267), dimensions={2}
  add.1269 = f32[32,128,2304]{2,1,0} add(dot.1264, broadcast.1268)
  reshape.1270 = f32[32,128,768,3]{3,2,1,0} reshape(add.1269)
  slice.1271 = f32[32,128,768,1]{3,2,1,0} slice(reshape.1270), slice={[0:32], [0:128], [0:768], [0:1]}
  reshape.1274 = f32[32,128,12,64]{3,2,1,0} reshape(slice.1271)
  divide.1280 = f32[32,128,12,64]{3,2,1,0} divide(reshape.1274, broadcast.744)
  slice.1273 = f32[32,128,768,1]{3,2,1,0} slice(reshape.1270), slice={[0:32], [0:128], [0:768], [2:3]}
  reshape.1276 = f32[32,128,12,64]{3,2,1,0} reshape(slice.1273)
  call.1281 = f32[32,12,128,128]{3,2,1,0} call(divide.1280, reshape.1276), to_apply=_einsum_7.228
  reshape.1277 = s32[32,1,1,128]{3,2,1,0} reshape(Arg_154.726)
  compare.1278 = pred[32,1,1,128]{3,2,1,0} compare(reshape.1277, broadcast.750), direction=GT
  select.1279 = f32[32,1,1,128]{3,2,1,0} select(compare.1278, broadcast.748, broadcast.746)
  broadcast.1282 = f32[32,1,1,128]{3,2,1,0} broadcast(select.1279), dimensions={0,1,2,3}
  reshape.1283 = f32[32,128]{1,0} reshape(broadcast.1282)
  broadcast.1284 = f32[32,12,128,128]{3,2,1,0} broadcast(reshape.1283), dimensions={0,3}
  add.1285 = f32[32,12,128,128]{3,2,1,0} add(call.1281, broadcast.1284)
  reduce.1286 = f32[32,12,128]{2,1,0} reduce(add.1285, constant.784), dimensions={3}, to_apply=region_20.232
  reshape.1287 = f32[32,12,128,1]{3,2,1,0} reshape(reduce.1286)
  broadcast.1288 = f32[32,12,128,1]{3,2,1,0} broadcast(reshape.1287), dimensions={0,1,2,3}
  reshape.1289 = f32[32,12,128]{2,1,0} reshape(broadcast.1288)
  broadcast.1290 = f32[32,12,128,128]{3,2,1,0} broadcast(reshape.1289), dimensions={0,1,2}
  subtract.1291 = f32[32,12,128,128]{3,2,1,0} subtract(add.1285, broadcast.1290)
  exponential.1292 = f32[32,12,128,128]{3,2,1,0} exponential(subtract.1291)
  reduce.1293 = f32[32,12,128]{2,1,0} reduce(exponential.1292, constant.785), dimensions={3}, to_apply=region_21.236
  reshape.1294 = f32[32,12,128,1]{3,2,1,0} reshape(reduce.1293)
  broadcast.1295 = f32[32,12,128,1]{3,2,1,0} broadcast(reshape.1294), dimensions={0,1,2,3}
  reshape.1296 = f32[32,12,128]{2,1,0} reshape(broadcast.1295)
  broadcast.1297 = f32[32,12,128,128]{3,2,1,0} broadcast(reshape.1296), dimensions={0,1,2}
  divide.1298 = f32[32,12,128,128]{3,2,1,0} divide(exponential.1292, broadcast.1297)
  slice.1272 = f32[32,128,768,1]{3,2,1,0} slice(reshape.1270), slice={[0:32], [0:128], [0:768], [1:2]}
  reshape.1275 = f32[32,128,12,64]{3,2,1,0} reshape(slice.1272)
  call.1299 = f32[32,128,12,64]{1,3,2,0} call(divide.1298, reshape.1275), to_apply=_einsum_8.240
  reshape.1300 = f32[32,128,768]{2,1,0} reshape(call.1299)
  Arg_43.615 = f32[768,768]{1,0} parameter(43)
  dot.1301 = f32[32,128,768]{2,1,0} dot(reshape.1300, Arg_43.615), lhs_contracting_dims={2}, rhs_contracting_dims={0}
  Arg_44.616 = f32[768]{0} parameter(44)
  reshape.1302 = f32[1,1,768]{2,1,0} reshape(Arg_44.616)
  broadcast.1303 = f32[1,1,768]{2,1,0} broadcast(reshape.1302), dimensions={0,1,2}
  reshape.1304 = f32[768]{0} reshape(broadcast.1303)
  broadcast.1305 = f32[32,128,768]{2,1,0} broadcast(reshape.1304), dimensions={2}
  add.1306 = f32[32,128,768]{2,1,0} add(dot.1301, broadcast.1305)
  add.1307 = f32[32,128,768]{2,1,0} add(add.1306, add.1263)
  reduce.1308 = f32[32,128]{1,0} reduce(add.1307, constant.785), dimensions={2}, to_apply=region_22.245
  divide.1309 = f32[32,128]{1,0} divide(reduce.1308, broadcast.736)
  reshape.1316 = f32[32,128,1]{2,1,0} reshape(divide.1309)
  broadcast.1318 = f32[32,128,1]{2,1,0} broadcast(reshape.1316), dimensions={0,1,2}
  reshape.1319 = f32[32,128]{1,0} reshape(broadcast.1318)
  broadcast.1320 = f32[32,128,768]{2,1,0} broadcast(reshape.1319), dimensions={0,1}
  subtract.1321 = f32[32,128,768]{2,1,0} subtract(add.1307, broadcast.1320)
  multiply.1310 = f32[32,128,768]{2,1,0} multiply(add.1307, add.1307)
  reduce.1311 = f32[32,128]{1,0} reduce(multiply.1310, constant.785), dimensions={2}, to_apply=region_23.249
  divide.1312 = f32[32,128]{1,0} divide(reduce.1311, broadcast.736)
  multiply.1313 = f32[32,128]{1,0} multiply(divide.1309, divide.1309)
  subtract.1314 = f32[32,128]{1,0} subtract(divide.1312, multiply.1313)
  maximum.1315 = f32[32,128]{1,0} maximum(subtract.1314, broadcast.734)
  reshape.1317 = f32[32,128,1]{2,1,0} reshape(maximum.1315)
  add.1322 = f32[32,128,1]{2,1,0} add(reshape.1317, broadcast.732)
  rsqrt.1323 = f32[32,128,1]{2,1,0} rsqrt(add.1322)
  broadcast.1325 = f32[32,128,1]{2,1,0} broadcast(rsqrt.1323), dimensions={0,1,2}
  reshape.1326 = f32[32,128]{1,0} reshape(broadcast.1325)
  broadcast.1327 = f32[32,128,768]{2,1,0} broadcast(reshape.1326), dimensions={0,1}
  Arg_45.617 = f32[768]{0} parameter(45)
  reshape.1324 = f32[1,1,768]{2,1,0} reshape(Arg_45.617)
  broadcast.1328 = f32[1,1,768]{2,1,0} broadcast(reshape.1324), dimensions={0,1,2}
  reshape.1329 = f32[768]{0} reshape(broadcast.1328)
  broadcast.1330 = f32[32,128,768]{2,1,0} broadcast(reshape.1329), dimensions={2}
  multiply.1331 = f32[32,128,768]{2,1,0} multiply(broadcast.1327, broadcast.1330)
  multiply.1332 = f32[32,128,768]{2,1,0} multiply(subtract.1321, multiply.1331)
  Arg_46.618 = f32[1,1,768]{2,1,0} parameter(46)
  broadcast.1333 = f32[1,1,768]{2,1,0} broadcast(Arg_46.618), dimensions={0,1,2}
  reshape.1334 = f32[768]{0} reshape(broadcast.1333)
  broadcast.1335 = f32[32,128,768]{2,1,0} broadcast(reshape.1334), dimensions={2}
  add.1336 = f32[32,128,768]{2,1,0} add(multiply.1332, broadcast.1335)
  Arg_47.619 = f32[768,3072]{1,0} parameter(47)
  dot.1337 = f32[32,128,3072]{2,1,0} dot(add.1336, Arg_47.619), lhs_contracting_dims={2}, rhs_contracting_dims={0}
  Arg_48.620 = f32[3072]{0} parameter(48)
  reshape.1338 = f32[1,1,3072]{2,1,0} reshape(Arg_48.620)
  broadcast.1339 = f32[1,1,3072]{2,1,0} broadcast(reshape.1338), dimensions={0,1,2}
  reshape.1340 = f32[3072]{0} reshape(broadcast.1339)
  broadcast.1341 = f32[32,128,3072]{2,1,0} broadcast(reshape.1340), dimensions={2}
  add.1342 = f32[32,128,3072]{2,1,0} add(dot.1337, broadcast.1341)
  divide.1343 = f32[32,128,3072]{2,1,0} divide(add.1342, broadcast.742)
  clamp.1344 = f32[32,128,3072]{2,1,0} clamp(broadcast.783, divide.1343, broadcast.781)
  multiply.1345 = f32[32,128,3072]{2,1,0} multiply(clamp.1344, clamp.1344)
  multiply.1346 = f32[32,128,3072]{2,1,0} multiply(multiply.1345, broadcast.779)
  add.1347 = f32[32,128,3072]{2,1,0} add(multiply.1346, broadcast.777)
  multiply.1348 = f32[32,128,3072]{2,1,0} multiply(add.1347, multiply.1345)
  add.1349 = f32[32,128,3072]{2,1,0} add(multiply.1348, broadcast.775)
  multiply.1350 = f32[32,128,3072]{2,1,0} multiply(add.1349, multiply.1345)
  add.1351 = f32[32,128,3072]{2,1,0} add(multiply.1350, broadcast.773)
  multiply.1352 = f32[32,128,3072]{2,1,0} multiply(add.1351, multiply.1345)
  add.1353 = f32[32,128,3072]{2,1,0} add(multiply.1352, broadcast.771)
  multiply.1354 = f32[32,128,3072]{2,1,0} multiply(add.1353, multiply.1345)
  add.1355 = f32[32,128,3072]{2,1,0} add(multiply.1354, broadcast.769)
  multiply.1356 = f32[32,128,3072]{2,1,0} multiply(add.1355, multiply.1345)
  add.1357 = f32[32,128,3072]{2,1,0} add(multiply.1356, broadcast.767)
  multiply.1358 = f32[32,128,3072]{2,1,0} multiply(add.1357, multiply.1345)
  add.1359 = f32[32,128,3072]{2,1,0} add(multiply.1358, broadcast.765)
  multiply.1370 = f32[32,128,3072]{2,1,0} multiply(clamp.1344, add.1359)
  multiply.1360 = f32[32,128,3072]{2,1,0} multiply(multiply.1345, broadcast.779)
  add.1361 = f32[32,128,3072]{2,1,0} add(multiply.1360, broadcast.763)
  multiply.1362 = f32[32,128,3072]{2,1,0} multiply(add.1361, multiply.1345)
  add.1363 = f32[32,128,3072]{2,1,0} add(multiply.1362, broadcast.761)
  multiply.1364 = f32[32,128,3072]{2,1,0} multiply(add.1363, multiply.1345)
  add.1365 = f32[32,128,3072]{2,1,0} add(multiply.1364, broadcast.759)
  multiply.1366 = f32[32,128,3072]{2,1,0} multiply(add.1365, multiply.1345)
  add.1367 = f32[32,128,3072]{2,1,0} add(multiply.1366, broadcast.757)
  multiply.1368 = f32[32,128,3072]{2,1,0} multiply(add.1367, multiply.1345)
  add.1369 = f32[32,128,3072]{2,1,0} add(multiply.1368, broadcast.755)
  divide.1371 = f32[32,128,3072]{2,1,0} divide(multiply.1370, add.1369)
  add.1372 = f32[32,128,3072]{2,1,0} add(divide.1371, broadcast.740)
  multiply.1373 = f32[32,128,3072]{2,1,0} multiply(add.1342, add.1372)
  divide.1374 = f32[32,128,3072]{2,1,0} divide(multiply.1373, broadcast.738)
  Arg_49.621 = f32[3072,768]{1,0} parameter(49)
  dot.1375 = f32[32,128,768]{2,1,0} dot(divide.1374, Arg_49.621), lhs_contracting_dims={2}, rhs_contracting_dims={0}
  Arg_50.622 = f32[768]{0} parameter(50)
  reshape.1376 = f32[1,1,768]{2,1,0} reshape(Arg_50.622)
  broadcast.1377 = f32[1,1,768]{2,1,0} broadcast(reshape.1376), dimensions={0,1,2}
  reshape.1378 = f32[768]{0} reshape(broadcast.1377)
  broadcast.1379 = f32[32,128,768]{2,1,0} broadcast(reshape.1378), dimensions={2}
  add.1380 = f32[32,128,768]{2,1,0} add(dot.1375, broadcast.1379)
  add.1381 = f32[32,128,768]{2,1,0} add(add.1380, add.1336)
  reduce.1382 = f32[32,128]{1,0} reduce(add.1381, constant.785), dimensions={2}, to_apply=region_24.253
  divide.1383 = f32[32,128]{1,0} divide(reduce.1382, broadcast.736)
  reshape.1390 = f32[32,128,1]{2,1,0} reshape(divide.1383)
  broadcast.1392 = f32[32,128,1]{2,1,0} broadcast(reshape.1390), dimensions={0,1,2}
  reshape.1393 = f32[32,128]{1,0} reshape(broadcast.1392)
  broadcast.1394 = f32[32,128,768]{2,1,0} broadcast(reshape.1393), dimensions={0,1}
  subtract.1395 = f32[32,128,768]{2,1,0} subtract(add.1381, broadcast.1394)
  multiply.1384 = f32[32,128,768]{2,1,0} multiply(add.1381, add.1381)
  reduce.1385 = f32[32,128]{1,0} reduce(multiply.1384, constant.785), dimensions={2}, to_apply=region_25.257
  divide.1386 = f32[32,128]{1,0} divide(reduce.1385, broadcast.736)
  multiply.1387 = f32[32,128]{1,0} multiply(divide.1383, divide.1383)
  subtract.1388 = f32[32,128]{1,0} subtract(divide.1386, multiply.1387)
  maximum.1389 = f32[32,128]{1,0} maximum(subtract.1388, broadcast.734)
  reshape.1391 = f32[32,128,1]{2,1,0} reshape(maximum.1389)
  add.1396 = f32[32,128,1]{2,1,0} add(reshape.1391, broadcast.732)
  rsqrt.1397 = f32[32,128,1]{2,1,0} rsqrt(add.1396)
  broadcast.1399 = f32[32,128,1]{2,1,0} broadcast(rsqrt.1397), dimensions={0,1,2}
  reshape.1400 = f32[32,128]{1,0} reshape(broadcast.1399)
  broadcast.1401 = f32[32,128,768]{2,1,0} broadcast(reshape.1400), dimensions={0,1}
  Arg_51.623 = f32[768]{0} parameter(51)
  reshape.1398 = f32[1,1,768]{2,1,0} reshape(Arg_51.623)
  broadcast.1402 = f32[1,1,768]{2,1,0} broadcast(reshape.1398), dimensions={0,1,2}
  reshape.1403 = f32[768]{0} reshape(broadcast.1402)
  broadcast.1404 = f32[32,128,768]{2,1,0} broadcast(reshape.1403), dimensions={2}
  multiply.1405 = f32[32,128,768]{2,1,0} multiply(broadcast.1401, broadcast.1404)
  multiply.1406 = f32[32,128,768]{2,1,0} multiply(subtract.1395, multiply.1405)
  Arg_52.624 = f32[1,1,768]{2,1,0} parameter(52)
  broadcast.1407 = f32[1,1,768]{2,1,0} broadcast(Arg_52.624), dimensions={0,1,2}
  reshape.1408 = f32[768]{0} reshape(broadcast.1407)
  broadcast.1409 = f32[32,128,768]{2,1,0} broadcast(reshape.1408), dimensions={2}
  add.1410 = f32[32,128,768]{2,1,0} add(multiply.1406, broadcast.1409)
  Arg_53.625 = f32[768,2304]{1,0} parameter(53)
  dot.1411 = f32[32,128,2304]{2,1,0} dot(add.1410, Arg_53.625), lhs_contracting_dims={2}, rhs_contracting_dims={0}
  Arg_54.626 = f32[2304]{0} parameter(54)
  reshape.1412 = f32[1,1,2304]{2,1,0} reshape(Arg_54.626)
  broadcast.1413 = f32[1,1,2304]{2,1,0} broadcast(reshape.1412), dimensions={0,1,2}
  reshape.1414 = f32[2304]{0} reshape(broadcast.1413)
  broadcast.1415 = f32[32,128,2304]{2,1,0} broadcast(reshape.1414), dimensions={2}
  add.1416 = f32[32,128,2304]{2,1,0} add(dot.1411, broadcast.1415)
  reshape.1417 = f32[32,128,768,3]{3,2,1,0} reshape(add.1416)
  slice.1418 = f32[32,128,768,1]{3,2,1,0} slice(reshape.1417), slice={[0:32], [0:128], [0:768], [0:1]}
  reshape.1421 = f32[32,128,12,64]{3,2,1,0} reshape(slice.1418)
  divide.1427 = f32[32,128,12,64]{3,2,1,0} divide(reshape.1421, broadcast.744)
  slice.1420 = f32[32,128,768,1]{3,2,1,0} slice(reshape.1417), slice={[0:32], [0:128], [0:768], [2:3]}
  reshape.1423 = f32[32,128,12,64]{3,2,1,0} reshape(slice.1420)
  call.1428 = f32[32,12,128,128]{3,2,1,0} call(divide.1427, reshape.1423), to_apply=_einsum_9.261
  reshape.1424 = s32[32,1,1,128]{3,2,1,0} reshape(Arg_154.726)
  compare.1425 = pred[32,1,1,128]{3,2,1,0} compare(reshape.1424, broadcast.750), direction=GT
  select.1426 = f32[32,1,1,128]{3,2,1,0} select(compare.1425, broadcast.748, broadcast.746)
  broadcast.1429 = f32[32,1,1,128]{3,2,1,0} broadcast(select.1426), dimensions={0,1,2,3}
  reshape.1430 = f32[32,128]{1,0} reshape(broadcast.1429)
  broadcast.1431 = f32[32,12,128,128]{3,2,1,0} broadcast(reshape.1430), dimensions={0,3}
  add.1432 = f32[32,12,128,128]{3,2,1,0} add(call.1428, broadcast.1431)
  reduce.1433 = f32[32,12,128]{2,1,0} reduce(add.1432, constant.784), dimensions={3}, to_apply=region_26.265
  reshape.1434 = f32[32,12,128,1]{3,2,1,0} reshape(reduce.1433)
  broadcast.1435 = f32[32,12,128,1]{3,2,1,0} broadcast(reshape.1434), dimensions={0,1,2,3}
  reshape.1436 = f32[32,12,128]{2,1,0} reshape(broadcast.1435)
  broadcast.1437 = f32[32,12,128,128]{3,2,1,0} broadcast(reshape.1436), dimensions={0,1,2}
  subtract.1438 = f32[32,12,128,128]{3,2,1,0} subtract(add.1432, broadcast.1437)
  exponential.1439 = f32[32,12,128,128]{3,2,1,0} exponential(subtract.1438)
  reduce.1440 = f32[32,12,128]{2,1,0} reduce(exponential.1439, constant.785), dimensions={3}, to_apply=region_27.269
  reshape.1441 = f32[32,12,128,1]{3,2,1,0} reshape(reduce.1440)
  broadcast.1442 = f32[32,12,128,1]{3,2,1,0} broadcast(reshape.1441), dimensions={0,1,2,3}
  reshape.1443 = f32[32,12,128]{2,1,0} reshape(broadcast.1442)
  broadcast.1444 = f32[32,12,128,128]{3,2,1,0} broadcast(reshape.1443), dimensions={0,1,2}
  divide.1445 = f32[32,12,128,128]{3,2,1,0} divide(exponential.1439, broadcast.1444)
  slice.1419 = f32[32,128,768,1]{3,2,1,0} slice(reshape.1417), slice={[0:32], [0:128], [0:768], [1:2]}
  reshape.1422 = f32[32,128,12,64]{3,2,1,0} reshape(slice.1419)
  call.1446 = f32[32,128,12,64]{1,3,2,0} call(divide.1445, reshape.1422), to_apply=_einsum_10.273
  reshape.1447 = f32[32,128,768]{2,1,0} reshape(call.1446)
  Arg_55.627 = f32[768,768]{1,0} parameter(55)
  dot.1448 = f32[32,128,768]{2,1,0} dot(reshape.1447, Arg_55.627), lhs_contracting_dims={2}, rhs_contracting_dims={0}
  Arg_56.628 = f32[768]{0} parameter(56)
  reshape.1449 = f32[1,1,768]{2,1,0} reshape(Arg_56.628)
  broadcast.1450 = f32[1,1,768]{2,1,0} broadcast(reshape.1449), dimensions={0,1,2}
  reshape.1451 = f32[768]{0} reshape(broadcast.1450)
  broadcast.1452 = f32[32,128,768]{2,1,0} broadcast(reshape.1451), dimensions={2}
  add.1453 = f32[32,128,768]{2,1,0} add(dot.1448, broadcast.1452)
  add.1454 = f32[32,128,768]{2,1,0} add(add.1453, add.1410)
  reduce.1455 = f32[32,128]{1,0} reduce(add.1454, constant.785), dimensions={2}, to_apply=region_28.278
  divide.1456 = f32[32,128]{1,0} divide(reduce.1455, broadcast.736)
  reshape.1463 = f32[32,128,1]{2,1,0} reshape(divide.1456)
  broadcast.1465 = f32[32,128,1]{2,1,0} broadcast(reshape.1463), dimensions={0,1,2}
  reshape.1466 = f32[32,128]{1,0} reshape(broadcast.1465)
  broadcast.1467 = f32[32,128,768]{2,1,0} broadcast(reshape.1466), dimensions={0,1}
  subtract.1468 = f32[32,128,768]{2,1,0} subtract(add.1454, broadcast.1467)
  multiply.1457 = f32[32,128,768]{2,1,0} multiply(add.1454, add.1454)
  reduce.1458 = f32[32,128]{1,0} reduce(multiply.1457, constant.785), dimensions={2}, to_apply=region_29.282
  divide.1459 = f32[32,128]{1,0} divide(reduce.1458, broadcast.736)
  multiply.1460 = f32[32,128]{1,0} multiply(divide.1456, divide.1456)
  subtract.1461 = f32[32,128]{1,0} subtract(divide.1459, multiply.1460)
  maximum.1462 = f32[32,128]{1,0} maximum(subtract.1461, broadcast.734)
  reshape.1464 = f32[32,128,1]{2,1,0} reshape(maximum.1462)
  add.1469 = f32[32,128,1]{2,1,0} add(reshape.1464, broadcast.732)
  rsqrt.1470 = f32[32,128,1]{2,1,0} rsqrt(add.1469)
  broadcast.1472 = f32[32,128,1]{2,1,0} broadcast(rsqrt.1470), dimensions={0,1,2}
  reshape.1473 = f32[32,128]{1,0} reshape(broadcast.1472)
  broadcast.1474 = f32[32,128,768]{2,1,0} broadcast(reshape.1473), dimensions={0,1}
  Arg_57.629 = f32[768]{0} parameter(57)
  reshape.1471 = f32[1,1,768]{2,1,0} reshape(Arg_57.629)
  broadcast.1475 = f32[1,1,768]{2,1,0} broadcast(reshape.1471), dimensions={0,1,2}
  reshape.1476 = f32[768]{0} reshape(broadcast.1475)
  broadcast.1477 = f32[32,128,768]{2,1,0} broadcast(reshape.1476), dimensions={2}
  multiply.1478 = f32[32,128,768]{2,1,0} multiply(broadcast.1474, broadcast.1477)
  multiply.1479 = f32[32,128,768]{2,1,0} multiply(subtract.1468, multiply.1478)
  Arg_58.630 = f32[1,1,768]{2,1,0} parameter(58)
  broadcast.1480 = f32[1,1,768]{2,1,0} broadcast(Arg_58.630), dimensions={0,1,2}
  reshape.1481 = f32[768]{0} reshape(broadcast.1480)
  broadcast.1482 = f32[32,128,768]{2,1,0} broadcast(reshape.1481), dimensions={2}
  add.1483 = f32[32,128,768]{2,1,0} add(multiply.1479, broadcast.1482)
  Arg_59.631 = f32[768,3072]{1,0} parameter(59)
  dot.1484 = f32[32,128,3072]{2,1,0} dot(add.1483, Arg_59.631), lhs_contracting_dims={2}, rhs_contracting_dims={0}
  Arg_60.632 = f32[3072]{0} parameter(60)
  reshape.1485 = f32[1,1,3072]{2,1,0} reshape(Arg_60.632)
  broadcast.1486 = f32[1,1,3072]{2,1,0} broadcast(reshape.1485), dimensions={0,1,2}
  reshape.1487 = f32[3072]{0} reshape(broadcast.1486)
  broadcast.1488 = f32[32,128,3072]{2,1,0} broadcast(reshape.1487), dimensions={2}
  add.1489 = f32[32,128,3072]{2,1,0} add(dot.1484, broadcast.1488)
  divide.1490 = f32[32,128,3072]{2,1,0} divide(add.1489, broadcast.742)
  clamp.1491 = f32[32,128,3072]{2,1,0} clamp(broadcast.783, divide.1490, broadcast.781)
  multiply.1492 = f32[32,128,3072]{2,1,0} multiply(clamp.1491, clamp.1491)
  multiply.1493 = f32[32,128,3072]{2,1,0} multiply(multiply.1492, broadcast.779)
  add.1494 = f32[32,128,3072]{2,1,0} add(multiply.1493, broadcast.777)
  multiply.1495 = f32[32,128,3072]{2,1,0} multiply(add.1494, multiply.1492)
  add.1496 = f32[32,128,3072]{2,1,0} add(multiply.1495, broadcast.775)
  multiply.1497 = f32[32,128,3072]{2,1,0} multiply(add.1496, multiply.1492)
  add.1498 = f32[32,128,3072]{2,1,0} add(multiply.1497, broadcast.773)
  multiply.1499 = f32[32,128,3072]{2,1,0} multiply(add.1498, multiply.1492)
  add.1500 = f32[32,128,3072]{2,1,0} add(multiply.1499, broadcast.771)
  multiply.1501 = f32[32,128,3072]{2,1,0} multiply(add.1500, multiply.1492)
  add.1502 = f32[32,128,3072]{2,1,0} add(multiply.1501, broadcast.769)
  multiply.1503 = f32[32,128,3072]{2,1,0} multiply(add.1502, multiply.1492)
  add.1504 = f32[32,128,3072]{2,1,0} add(multiply.1503, broadcast.767)
  multiply.1505 = f32[32,128,3072]{2,1,0} multiply(add.1504, multiply.1492)
  add.1506 = f32[32,128,3072]{2,1,0} add(multiply.1505, broadcast.765)
  multiply.1517 = f32[32,128,3072]{2,1,0} multiply(clamp.1491, add.1506)
  multiply.1507 = f32[32,128,3072]{2,1,0} multiply(multiply.1492, broadcast.779)
  add.1508 = f32[32,128,3072]{2,1,0} add(multiply.1507, broadcast.763)
  multiply.1509 = f32[32,128,3072]{2,1,0} multiply(add.1508, multiply.1492)
  add.1510 = f32[32,128,3072]{2,1,0} add(multiply.1509, broadcast.761)
  multiply.1511 = f32[32,128,3072]{2,1,0} multiply(add.1510, multiply.1492)
  add.1512 = f32[32,128,3072]{2,1,0} add(multiply.1511, broadcast.759)
  multiply.1513 = f32[32,128,3072]{2,1,0} multiply(add.1512, multiply.1492)
  add.1514 = f32[32,128,3072]{2,1,0} add(multiply.1513, broadcast.757)
  multiply.1515 = f32[32,128,3072]{2,1,0} multiply(add.1514, multiply.1492)
  add.1516 = f32[32,128,3072]{2,1,0} add(multiply.1515, broadcast.755)
  divide.1518 = f32[32,128,3072]{2,1,0} divide(multiply.1517, add.1516)
  add.1519 = f32[32,128,3072]{2,1,0} add(divide.1518, broadcast.740)
  multiply.1520 = f32[32,128,3072]{2,1,0} multiply(add.1489, add.1519)
  divide.1521 = f32[32,128,3072]{2,1,0} divide(multiply.1520, broadcast.738)
  Arg_61.633 = f32[3072,768]{1,0} parameter(61)
  dot.1522 = f32[32,128,768]{2,1,0} dot(divide.1521, Arg_61.633), lhs_contracting_dims={2}, rhs_contracting_dims={0}
  Arg_62.634 = f32[768]{0} parameter(62)
  reshape.1523 = f32[1,1,768]{2,1,0} reshape(Arg_62.634)
  broadcast.1524 = f32[1,1,768]{2,1,0} broadcast(reshape.1523), dimensions={0,1,2}
  reshape.1525 = f32[768]{0} reshape(broadcast.1524)
  broadcast.1526 = f32[32,128,768]{2,1,0} broadcast(reshape.1525), dimensions={2}
  add.1527 = f32[32,128,768]{2,1,0} add(dot.1522, broadcast.1526)
  add.1528 = f32[32,128,768]{2,1,0} add(add.1527, add.1483)
  reduce.1529 = f32[32,128]{1,0} reduce(add.1528, constant.785), dimensions={2}, to_apply=region_30.286
  divide.1530 = f32[32,128]{1,0} divide(reduce.1529, broadcast.736)
  reshape.1537 = f32[32,128,1]{2,1,0} reshape(divide.1530)
  broadcast.1539 = f32[32,128,1]{2,1,0} broadcast(reshape.1537), dimensions={0,1,2}
  reshape.1540 = f32[32,128]{1,0} reshape(broadcast.1539)
  broadcast.1541 = f32[32,128,768]{2,1,0} broadcast(reshape.1540), dimensions={0,1}
  subtract.1542 = f32[32,128,768]{2,1,0} subtract(add.1528, broadcast.1541)
  multiply.1531 = f32[32,128,768]{2,1,0} multiply(add.1528, add.1528)
  reduce.1532 = f32[32,128]{1,0} reduce(multiply.1531, constant.785), dimensions={2}, to_apply=region_31.290
  divide.1533 = f32[32,128]{1,0} divide(reduce.1532, broadcast.736)
  multiply.1534 = f32[32,128]{1,0} multiply(divide.1530, divide.1530)
  subtract.1535 = f32[32,128]{1,0} subtract(divide.1533, multiply.1534)
  maximum.1536 = f32[32,128]{1,0} maximum(subtract.1535, broadcast.734)
  reshape.1538 = f32[32,128,1]{2,1,0} reshape(maximum.1536)
  add.1543 = f32[32,128,1]{2,1,0} add(reshape.1538, broadcast.732)
  rsqrt.1544 = f32[32,128,1]{2,1,0} rsqrt(add.1543)
  broadcast.1546 = f32[32,128,1]{2,1,0} broadcast(rsqrt.1544), dimensions={0,1,2}
  reshape.1547 = f32[32,128]{1,0} reshape(broadcast.1546)
  broadcast.1548 = f32[32,128,768]{2,1,0} broadcast(reshape.1547), dimensions={0,1}
  Arg_63.635 = f32[768]{0} parameter(63)
  reshape.1545 = f32[1,1,768]{2,1,0} reshape(Arg_63.635)
  broadcast.1549 = f32[1,1,768]{2,1,0} broadcast(reshape.1545), dimensions={0,1,2}
  reshape.1550 = f32[768]{0} reshape(broadcast.1549)
  broadcast.1551 = f32[32,128,768]{2,1,0} broadcast(reshape.1550), dimensions={2}
  multiply.1552 = f32[32,128,768]{2,1,0} multiply(broadcast.1548, broadcast.1551)
  multiply.1553 = f32[32,128,768]{2,1,0} multiply(subtract.1542, multiply.1552)
  Arg_64.636 = f32[1,1,768]{2,1,0} parameter(64)
  broadcast.1554 = f32[1,1,768]{2,1,0} broadcast(Arg_64.636), dimensions={0,1,2}
  reshape.1555 = f32[768]{0} reshape(broadcast.1554)
  broadcast.1556 = f32[32,128,768]{2,1,0} broadcast(reshape.1555), dimensions={2}
  add.1557 = f32[32,128,768]{2,1,0} add(multiply.1553, broadcast.1556)
  Arg_65.637 = f32[768,2304]{1,0} parameter(65)
  dot.1558 = f32[32,128,2304]{2,1,0} dot(add.1557, Arg_65.637), lhs_contracting_dims={2}, rhs_contracting_dims={0}
  Arg_66.638 = f32[2304]{0} parameter(66)
  reshape.1559 = f32[1,1,2304]{2,1,0} reshape(Arg_66.638)
  broadcast.1560 = f32[1,1,2304]{2,1,0} broadcast(reshape.1559), dimensions={0,1,2}
  reshape.1561 = f32[2304]{0} reshape(broadcast.1560)
  broadcast.1562 = f32[32,128,2304]{2,1,0} broadcast(reshape.1561), dimensions={2}
  add.1563 = f32[32,128,2304]{2,1,0} add(dot.1558, broadcast.1562)
  reshape.1564 = f32[32,128,768,3]{3,2,1,0} reshape(add.1563)
  slice.1565 = f32[32,128,768,1]{3,2,1,0} slice(reshape.1564), slice={[0:32], [0:128], [0:768], [0:1]}
  reshape.1568 = f32[32,128,12,64]{3,2,1,0} reshape(slice.1565)
  divide.1574 = f32[32,128,12,64]{3,2,1,0} divide(reshape.1568, broadcast.744)
  slice.1567 = f32[32,128,768,1]{3,2,1,0} slice(reshape.1564), slice={[0:32], [0:128], [0:768], [2:3]}
  reshape.1570 = f32[32,128,12,64]{3,2,1,0} reshape(slice.1567)
  call.1575 = f32[32,12,128,128]{3,2,1,0} call(divide.1574, reshape.1570), to_apply=_einsum_11.294
  reshape.1571 = s32[32,1,1,128]{3,2,1,0} reshape(Arg_154.726)
  compare.1572 = pred[32,1,1,128]{3,2,1,0} compare(reshape.1571, broadcast.750), direction=GT
  select.1573 = f32[32,1,1,128]{3,2,1,0} select(compare.1572, broadcast.748, broadcast.746)
  broadcast.1576 = f32[32,1,1,128]{3,2,1,0} broadcast(select.1573), dimensions={0,1,2,3}
  reshape.1577 = f32[32,128]{1,0} reshape(broadcast.1576)
  broadcast.1578 = f32[32,12,128,128]{3,2,1,0} broadcast(reshape.1577), dimensions={0,3}
  add.1579 = f32[32,12,128,128]{3,2,1,0} add(call.1575, broadcast.1578)
  reduce.1580 = f32[32,12,128]{2,1,0} reduce(add.1579, constant.784), dimensions={3}, to_apply=region_32.298
  reshape.1581 = f32[32,12,128,1]{3,2,1,0} reshape(reduce.1580)
  broadcast.1582 = f32[32,12,128,1]{3,2,1,0} broadcast(reshape.1581), dimensions={0,1,2,3}
  reshape.1583 = f32[32,12,128]{2,1,0} reshape(broadcast.1582)
  broadcast.1584 = f32[32,12,128,128]{3,2,1,0} broadcast(reshape.1583), dimensions={0,1,2}
  subtract.1585 = f32[32,12,128,128]{3,2,1,0} subtract(add.1579, broadcast.1584)
  exponential.1586 = f32[32,12,128,128]{3,2,1,0} exponential(subtract.1585)
  reduce.1587 = f32[32,12,128]{2,1,0} reduce(exponential.1586, constant.785), dimensions={3}, to_apply=region_33.302
  reshape.1588 = f32[32,12,128,1]{3,2,1,0} reshape(reduce.1587)
  broadcast.1589 = f32[32,12,128,1]{3,2,1,0} broadcast(reshape.1588), dimensions={0,1,2,3}
  reshape.1590 = f32[32,12,128]{2,1,0} reshape(broadcast.1589)
  broadcast.1591 = f32[32,12,128,128]{3,2,1,0} broadcast(reshape.1590), dimensions={0,1,2}
  divide.1592 = f32[32,12,128,128]{3,2,1,0} divide(exponential.1586, broadcast.1591)
  slice.1566 = f32[32,128,768,1]{3,2,1,0} slice(reshape.1564), slice={[0:32], [0:128], [0:768], [1:2]}
  reshape.1569 = f32[32,128,12,64]{3,2,1,0} reshape(slice.1566)
  call.1593 = f32[32,128,12,64]{1,3,2,0} call(divide.1592, reshape.1569), to_apply=_einsum_12.306
  reshape.1594 = f32[32,128,768]{2,1,0} reshape(call.1593)
  Arg_67.639 = f32[768,768]{1,0} parameter(67)
  dot.1595 = f32[32,128,768]{2,1,0} dot(reshape.1594, Arg_67.639), lhs_contracting_dims={2}, rhs_contracting_dims={0}
  Arg_68.640 = f32[768]{0} parameter(68)
  reshape.1596 = f32[1,1,768]{2,1,0} reshape(Arg_68.640)
  broadcast.1597 = f32[1,1,768]{2,1,0} broadcast(reshape.1596), dimensions={0,1,2}
  reshape.1598 = f32[768]{0} reshape(broadcast.1597)
  broadcast.1599 = f32[32,128,768]{2,1,0} broadcast(reshape.1598), dimensions={2}
  add.1600 = f32[32,128,768]{2,1,0} add(dot.1595, broadcast.1599)
  add.1601 = f32[32,128,768]{2,1,0} add(add.1600, add.1557)
  reduce.1602 = f32[32,128]{1,0} reduce(add.1601, constant.785), dimensions={2}, to_apply=region_34.311
  divide.1603 = f32[32,128]{1,0} divide(reduce.1602, broadcast.736)
  reshape.1610 = f32[32,128,1]{2,1,0} reshape(divide.1603)
  broadcast.1612 = f32[32,128,1]{2,1,0} broadcast(reshape.1610), dimensions={0,1,2}
  reshape.1613 = f32[32,128]{1,0} reshape(broadcast.1612)
  broadcast.1614 = f32[32,128,768]{2,1,0} broadcast(reshape.1613), dimensions={0,1}
  subtract.1615 = f32[32,128,768]{2,1,0} subtract(add.1601, broadcast.1614)
  multiply.1604 = f32[32,128,768]{2,1,0} multiply(add.1601, add.1601)
  reduce.1605 = f32[32,128]{1,0} reduce(multiply.1604, constant.785), dimensions={2}, to_apply=region_35.315
  divide.1606 = f32[32,128]{1,0} divide(reduce.1605, broadcast.736)
  multiply.1607 = f32[32,128]{1,0} multiply(divide.1603, divide.1603)
  subtract.1608 = f32[32,128]{1,0} subtract(divide.1606, multiply.1607)
  maximum.1609 = f32[32,128]{1,0} maximum(subtract.1608, broadcast.734)
  reshape.1611 = f32[32,128,1]{2,1,0} reshape(maximum.1609)
  add.1616 = f32[32,128,1]{2,1,0} add(reshape.1611, broadcast.732)
  rsqrt.1617 = f32[32,128,1]{2,1,0} rsqrt(add.1616)
  broadcast.1619 = f32[32,128,1]{2,1,0} broadcast(rsqrt.1617), dimensions={0,1,2}
  reshape.1620 = f32[32,128]{1,0} reshape(broadcast.1619)
  broadcast.1621 = f32[32,128,768]{2,1,0} broadcast(reshape.1620), dimensions={0,1}
  Arg_69.641 = f32[768]{0} parameter(69)
  reshape.1618 = f32[1,1,768]{2,1,0} reshape(Arg_69.641)
  broadcast.1622 = f32[1,1,768]{2,1,0} broadcast(reshape.1618), dimensions={0,1,2}
  reshape.1623 = f32[768]{0} reshape(broadcast.1622)
  broadcast.1624 = f32[32,128,768]{2,1,0} broadcast(reshape.1623), dimensions={2}
  multiply.1625 = f32[32,128,768]{2,1,0} multiply(broadcast.1621, broadcast.1624)
  multiply.1626 = f32[32,128,768]{2,1,0} multiply(subtract.1615, multiply.1625)
  Arg_70.642 = f32[1,1,768]{2,1,0} parameter(70)
  broadcast.1627 = f32[1,1,768]{2,1,0} broadcast(Arg_70.642), dimensions={0,1,2}
  reshape.1628 = f32[768]{0} reshape(broadcast.1627)
  broadcast.1629 = f32[32,128,768]{2,1,0} broadcast(reshape.1628), dimensions={2}
  add.1630 = f32[32,128,768]{2,1,0} add(multiply.1626, broadcast.1629)
  Arg_71.643 = f32[768,3072]{1,0} parameter(71)
  dot.1631 = f32[32,128,3072]{2,1,0} dot(add.1630, Arg_71.643), lhs_contracting_dims={2}, rhs_contracting_dims={0}
  Arg_72.644 = f32[3072]{0} parameter(72)
  reshape.1632 = f32[1,1,3072]{2,1,0} reshape(Arg_72.644)
  broadcast.1633 = f32[1,1,3072]{2,1,0} broadcast(reshape.1632), dimensions={0,1,2}
  reshape.1634 = f32[3072]{0} reshape(broadcast.1633)
  broadcast.1635 = f32[32,128,3072]{2,1,0} broadcast(reshape.1634), dimensions={2}
  add.1636 = f32[32,128,3072]{2,1,0} add(dot.1631, broadcast.1635)
  divide.1637 = f32[32,128,3072]{2,1,0} divide(add.1636, broadcast.742)
  clamp.1638 = f32[32,128,3072]{2,1,0} clamp(broadcast.783, divide.1637, broadcast.781)
  multiply.1639 = f32[32,128,3072]{2,1,0} multiply(clamp.1638, clamp.1638)
  multiply.1640 = f32[32,128,3072]{2,1,0} multiply(multiply.1639, broadcast.779)
  add.1641 = f32[32,128,3072]{2,1,0} add(multiply.1640, broadcast.777)
  multiply.1642 = f32[32,128,3072]{2,1,0} multiply(add.1641, multiply.1639)
  add.1643 = f32[32,128,3072]{2,1,0} add(multiply.1642, broadcast.775)
  multiply.1644 = f32[32,128,3072]{2,1,0} multiply(add.1643, multiply.1639)
  add.1645 = f32[32,128,3072]{2,1,0} add(multiply.1644, broadcast.773)
  multiply.1646 = f32[32,128,3072]{2,1,0} multiply(add.1645, multiply.1639)
  add.1647 = f32[32,128,3072]{2,1,0} add(multiply.1646, broadcast.771)
  multiply.1648 = f32[32,128,3072]{2,1,0} multiply(add.1647, multiply.1639)
  add.1649 = f32[32,128,3072]{2,1,0} add(multiply.1648, broadcast.769)
  multiply.1650 = f32[32,128,3072]{2,1,0} multiply(add.1649, multiply.1639)
  add.1651 = f32[32,128,3072]{2,1,0} add(multiply.1650, broadcast.767)
  multiply.1652 = f32[32,128,3072]{2,1,0} multiply(add.1651, multiply.1639)
  add.1653 = f32[32,128,3072]{2,1,0} add(multiply.1652, broadcast.765)
  multiply.1664 = f32[32,128,3072]{2,1,0} multiply(clamp.1638, add.1653)
  multiply.1654 = f32[32,128,3072]{2,1,0} multiply(multiply.1639, broadcast.779)
  add.1655 = f32[32,128,3072]{2,1,0} add(multiply.1654, broadcast.763)
  multiply.1656 = f32[32,128,3072]{2,1,0} multiply(add.1655, multiply.1639)
  add.1657 = f32[32,128,3072]{2,1,0} add(multiply.1656, broadcast.761)
  multiply.1658 = f32[32,128,3072]{2,1,0} multiply(add.1657, multiply.1639)
  add.1659 = f32[32,128,3072]{2,1,0} add(multiply.1658, broadcast.759)
  multiply.1660 = f32[32,128,3072]{2,1,0} multiply(add.1659, multiply.1639)
  add.1661 = f32[32,128,3072]{2,1,0} add(multiply.1660, broadcast.757)
  multiply.1662 = f32[32,128,3072]{2,1,0} multiply(add.1661, multiply.1639)
  add.1663 = f32[32,128,3072]{2,1,0} add(multiply.1662, broadcast.755)
  divide.1665 = f32[32,128,3072]{2,1,0} divide(multiply.1664, add.1663)
  add.1666 = f32[32,128,3072]{2,1,0} add(divide.1665, broadcast.740)
  multiply.1667 = f32[32,128,3072]{2,1,0} multiply(add.1636, add.1666)
  divide.1668 = f32[32,128,3072]{2,1,0} divide(multiply.1667, broadcast.738)
  Arg_73.645 = f32[3072,768]{1,0} parameter(73)
  dot.1669 = f32[32,128,768]{2,1,0} dot(divide.1668, Arg_73.645), lhs_contracting_dims={2}, rhs_contracting_dims={0}
  Arg_74.646 = f32[768]{0} parameter(74)
  reshape.1670 = f32[1,1,768]{2,1,0} reshape(Arg_74.646)
  broadcast.1671 = f32[1,1,768]{2,1,0} broadcast(reshape.1670), dimensions={0,1,2}
  reshape.1672 = f32[768]{0} reshape(broadcast.1671)
  broadcast.1673 = f32[32,128,768]{2,1,0} broadcast(reshape.1672), dimensions={2}
  add.1674 = f32[32,128,768]{2,1,0} add(dot.1669, broadcast.1673)
  add.1675 = f32[32,128,768]{2,1,0} add(add.1674, add.1630)
  reduce.1676 = f32[32,128]{1,0} reduce(add.1675, constant.785), dimensions={2}, to_apply=region_36.319
  divide.1677 = f32[32,128]{1,0} divide(reduce.1676, broadcast.736)
  reshape.1684 = f32[32,128,1]{2,1,0} reshape(divide.1677)
  broadcast.1686 = f32[32,128,1]{2,1,0} broadcast(reshape.1684), dimensions={0,1,2}
  reshape.1687 = f32[32,128]{1,0} reshape(broadcast.1686)
  broadcast.1688 = f32[32,128,768]{2,1,0} broadcast(reshape.1687), dimensions={0,1}
  subtract.1689 = f32[32,128,768]{2,1,0} subtract(add.1675, broadcast.1688)
  multiply.1678 = f32[32,128,768]{2,1,0} multiply(add.1675, add.1675)
  reduce.1679 = f32[32,128]{1,0} reduce(multiply.1678, constant.785), dimensions={2}, to_apply=region_37.323
  divide.1680 = f32[32,128]{1,0} divide(reduce.1679, broadcast.736)
  multiply.1681 = f32[32,128]{1,0} multiply(divide.1677, divide.1677)
  subtract.1682 = f32[32,128]{1,0} subtract(divide.1680, multiply.1681)
  maximum.1683 = f32[32,128]{1,0} maximum(subtract.1682, broadcast.734)
  reshape.1685 = f32[32,128,1]{2,1,0} reshape(maximum.1683)
  add.1690 = f32[32,128,1]{2,1,0} add(reshape.1685, broadcast.732)
  rsqrt.1691 = f32[32,128,1]{2,1,0} rsqrt(add.1690)
  broadcast.1693 = f32[32,128,1]{2,1,0} broadcast(rsqrt.1691), dimensions={0,1,2}
  reshape.1694 = f32[32,128]{1,0} reshape(broadcast.1693)
  broadcast.1695 = f32[32,128,768]{2,1,0} broadcast(reshape.1694), dimensions={0,1}
  Arg_75.647 = f32[768]{0} parameter(75)
  reshape.1692 = f32[1,1,768]{2,1,0} reshape(Arg_75.647)
  broadcast.1696 = f32[1,1,768]{2,1,0} broadcast(reshape.1692), dimensions={0,1,2}
  reshape.1697 = f32[768]{0} reshape(broadcast.1696)
  broadcast.1698 = f32[32,128,768]{2,1,0} broadcast(reshape.1697), dimensions={2}
  multiply.1699 = f32[32,128,768]{2,1,0} multiply(broadcast.1695, broadcast.1698)
  multiply.1700 = f32[32,128,768]{2,1,0} multiply(subtract.1689, multiply.1699)
  Arg_76.648 = f32[1,1,768]{2,1,0} parameter(76)
  broadcast.1701 = f32[1,1,768]{2,1,0} broadcast(Arg_76.648), dimensions={0,1,2}
  reshape.1702 = f32[768]{0} reshape(broadcast.1701)
  broadcast.1703 = f32[32,128,768]{2,1,0} broadcast(reshape.1702), dimensions={2}
  add.1704 = f32[32,128,768]{2,1,0} add(multiply.1700, broadcast.1703)
  Arg_77.649 = f32[768,2304]{1,0} parameter(77)
  dot.1705 = f32[32,128,2304]{2,1,0} dot(add.1704, Arg_77.649), lhs_contracting_dims={2}, rhs_contracting_dims={0}
  Arg_78.650 = f32[2304]{0} parameter(78)
  reshape.1706 = f32[1,1,2304]{2,1,0} reshape(Arg_78.650)
  broadcast.1707 = f32[1,1,2304]{2,1,0} broadcast(reshape.1706), dimensions={0,1,2}
  reshape.1708 = f32[2304]{0} reshape(broadcast.1707)
  broadcast.1709 = f32[32,128,2304]{2,1,0} broadcast(reshape.1708), dimensions={2}
  add.1710 = f32[32,128,2304]{2,1,0} add(dot.1705, broadcast.1709)
  reshape.1711 = f32[32,128,768,3]{3,2,1,0} reshape(add.1710)
  slice.1712 = f32[32,128,768,1]{3,2,1,0} slice(reshape.1711), slice={[0:32], [0:128], [0:768], [0:1]}
  reshape.1715 = f32[32,128,12,64]{3,2,1,0} reshape(slice.1712)
  divide.1721 = f32[32,128,12,64]{3,2,1,0} divide(reshape.1715, broadcast.744)
  slice.1714 = f32[32,128,768,1]{3,2,1,0} slice(reshape.1711), slice={[0:32], [0:128], [0:768], [2:3]}
  reshape.1717 = f32[32,128,12,64]{3,2,1,0} reshape(slice.1714)
  call.1722 = f32[32,12,128,128]{3,2,1,0} call(divide.1721, reshape.1717), to_apply=_einsum_13.327
  reshape.1718 = s32[32,1,1,128]{3,2,1,0} reshape(Arg_154.726)
  compare.1719 = pred[32,1,1,128]{3,2,1,0} compare(reshape.1718, broadcast.750), direction=GT
  select.1720 = f32[32,1,1,128]{3,2,1,0} select(compare.1719, broadcast.748, broadcast.746)
  broadcast.1723 = f32[32,1,1,128]{3,2,1,0} broadcast(select.1720), dimensions={0,1,2,3}
  reshape.1724 = f32[32,128]{1,0} reshape(broadcast.1723)
  broadcast.1725 = f32[32,12,128,128]{3,2,1,0} broadcast(reshape.1724), dimensions={0,3}
  add.1726 = f32[32,12,128,128]{3,2,1,0} add(call.1722, broadcast.1725)
  reduce.1727 = f32[32,12,128]{2,1,0} reduce(add.1726, constant.784), dimensions={3}, to_apply=region_38.331
  reshape.1728 = f32[32,12,128,1]{3,2,1,0} reshape(reduce.1727)
  broadcast.1729 = f32[32,12,128,1]{3,2,1,0} broadcast(reshape.1728), dimensions={0,1,2,3}
  reshape.1730 = f32[32,12,128]{2,1,0} reshape(broadcast.1729)
  broadcast.1731 = f32[32,12,128,128]{3,2,1,0} broadcast(reshape.1730), dimensions={0,1,2}
  subtract.1732 = f32[32,12,128,128]{3,2,1,0} subtract(add.1726, broadcast.1731)
  exponential.1733 = f32[32,12,128,128]{3,2,1,0} exponential(subtract.1732)
  reduce.1734 = f32[32,12,128]{2,1,0} reduce(exponential.1733, constant.785), dimensions={3}, to_apply=region_39.335
  reshape.1735 = f32[32,12,128,1]{3,2,1,0} reshape(reduce.1734)
  broadcast.1736 = f32[32,12,128,1]{3,2,1,0} broadcast(reshape.1735), dimensions={0,1,2,3}
  reshape.1737 = f32[32,12,128]{2,1,0} reshape(broadcast.1736)
  broadcast.1738 = f32[32,12,128,128]{3,2,1,0} broadcast(reshape.1737), dimensions={0,1,2}
  divide.1739 = f32[32,12,128,128]{3,2,1,0} divide(exponential.1733, broadcast.1738)
  slice.1713 = f32[32,128,768,1]{3,2,1,0} slice(reshape.1711), slice={[0:32], [0:128], [0:768], [1:2]}
  reshape.1716 = f32[32,128,12,64]{3,2,1,0} reshape(slice.1713)
  call.1740 = f32[32,128,12,64]{1,3,2,0} call(divide.1739, reshape.1716), to_apply=_einsum_14.339
  reshape.1741 = f32[32,128,768]{2,1,0} reshape(call.1740)
  Arg_79.651 = f32[768,768]{1,0} parameter(79)
  dot.1742 = f32[32,128,768]{2,1,0} dot(reshape.1741, Arg_79.651), lhs_contracting_dims={2}, rhs_contracting_dims={0}
  Arg_80.652 = f32[768]{0} parameter(80)
  reshape.1743 = f32[1,1,768]{2,1,0} reshape(Arg_80.652)
  broadcast.1744 = f32[1,1,768]{2,1,0} broadcast(reshape.1743), dimensions={0,1,2}
  reshape.1745 = f32[768]{0} reshape(broadcast.1744)
  broadcast.1746 = f32[32,128,768]{2,1,0} broadcast(reshape.1745), dimensions={2}
  add.1747 = f32[32,128,768]{2,1,0} add(dot.1742, broadcast.1746)
  add.1748 = f32[32,128,768]{2,1,0} add(add.1747, add.1704)
  reduce.1749 = f32[32,128]{1,0} reduce(add.1748, constant.785), dimensions={2}, to_apply=region_40.344
  divide.1750 = f32[32,128]{1,0} divide(reduce.1749, broadcast.736)
  reshape.1757 = f32[32,128,1]{2,1,0} reshape(divide.1750)
  broadcast.1759 = f32[32,128,1]{2,1,0} broadcast(reshape.1757), dimensions={0,1,2}
  reshape.1760 = f32[32,128]{1,0} reshape(broadcast.1759)
  broadcast.1761 = f32[32,128,768]{2,1,0} broadcast(reshape.1760), dimensions={0,1}
  subtract.1762 = f32[32,128,768]{2,1,0} subtract(add.1748, broadcast.1761)
  multiply.1751 = f32[32,128,768]{2,1,0} multiply(add.1748, add.1748)
  reduce.1752 = f32[32,128]{1,0} reduce(multiply.1751, constant.785), dimensions={2}, to_apply=region_41.348
  divide.1753 = f32[32,128]{1,0} divide(reduce.1752, broadcast.736)
  multiply.1754 = f32[32,128]{1,0} multiply(divide.1750, divide.1750)
  subtract.1755 = f32[32,128]{1,0} subtract(divide.1753, multiply.1754)
  maximum.1756 = f32[32,128]{1,0} maximum(subtract.1755, broadcast.734)
  reshape.1758 = f32[32,128,1]{2,1,0} reshape(maximum.1756)
  add.1763 = f32[32,128,1]{2,1,0} add(reshape.1758, broadcast.732)
  rsqrt.1764 = f32[32,128,1]{2,1,0} rsqrt(add.1763)
  broadcast.1766 = f32[32,128,1]{2,1,0} broadcast(rsqrt.1764), dimensions={0,1,2}
  reshape.1767 = f32[32,128]{1,0} reshape(broadcast.1766)
  broadcast.1768 = f32[32,128,768]{2,1,0} broadcast(reshape.1767), dimensions={0,1}
  Arg_81.653 = f32[768]{0} parameter(81)
  reshape.1765 = f32[1,1,768]{2,1,0} reshape(Arg_81.653)
  broadcast.1769 = f32[1,1,768]{2,1,0} broadcast(reshape.1765), dimensions={0,1,2}
  reshape.1770 = f32[768]{0} reshape(broadcast.1769)
  broadcast.1771 = f32[32,128,768]{2,1,0} broadcast(reshape.1770), dimensions={2}
  multiply.1772 = f32[32,128,768]{2,1,0} multiply(broadcast.1768, broadcast.1771)
  multiply.1773 = f32[32,128,768]{2,1,0} multiply(subtract.1762, multiply.1772)
  Arg_82.654 = f32[1,1,768]{2,1,0} parameter(82)
  broadcast.1774 = f32[1,1,768]{2,1,0} broadcast(Arg_82.654), dimensions={0,1,2}
  reshape.1775 = f32[768]{0} reshape(broadcast.1774)
  broadcast.1776 = f32[32,128,768]{2,1,0} broadcast(reshape.1775), dimensions={2}
  add.1777 = f32[32,128,768]{2,1,0} add(multiply.1773, broadcast.1776)
  Arg_83.655 = f32[768,3072]{1,0} parameter(83)
  dot.1778 = f32[32,128,3072]{2,1,0} dot(add.1777, Arg_83.655), lhs_contracting_dims={2}, rhs_contracting_dims={0}
  Arg_84.656 = f32[3072]{0} parameter(84)
  reshape.1779 = f32[1,1,3072]{2,1,0} reshape(Arg_84.656)
  broadcast.1780 = f32[1,1,3072]{2,1,0} broadcast(reshape.1779), dimensions={0,1,2}
  reshape.1781 = f32[3072]{0} reshape(broadcast.1780)
  broadcast.1782 = f32[32,128,3072]{2,1,0} broadcast(reshape.1781), dimensions={2}
  add.1783 = f32[32,128,3072]{2,1,0} add(dot.1778, broadcast.1782)
  divide.1784 = f32[32,128,3072]{2,1,0} divide(add.1783, broadcast.742)
  clamp.1785 = f32[32,128,3072]{2,1,0} clamp(broadcast.783, divide.1784, broadcast.781)
  multiply.1786 = f32[32,128,3072]{2,1,0} multiply(clamp.1785, clamp.1785)
  multiply.1787 = f32[32,128,3072]{2,1,0} multiply(multiply.1786, broadcast.779)
  add.1788 = f32[32,128,3072]{2,1,0} add(multiply.1787, broadcast.777)
  multiply.1789 = f32[32,128,3072]{2,1,0} multiply(add.1788, multiply.1786)
  add.1790 = f32[32,128,3072]{2,1,0} add(multiply.1789, broadcast.775)
  multiply.1791 = f32[32,128,3072]{2,1,0} multiply(add.1790, multiply.1786)
  add.1792 = f32[32,128,3072]{2,1,0} add(multiply.1791, broadcast.773)
  multiply.1793 = f32[32,128,3072]{2,1,0} multiply(add.1792, multiply.1786)
  add.1794 = f32[32,128,3072]{2,1,0} add(multiply.1793, broadcast.771)
  multiply.1795 = f32[32,128,3072]{2,1,0} multiply(add.1794, multiply.1786)
  add.1796 = f32[32,128,3072]{2,1,0} add(multiply.1795, broadcast.769)
  multiply.1797 = f32[32,128,3072]{2,1,0} multiply(add.1796, multiply.1786)
  add.1798 = f32[32,128,3072]{2,1,0} add(multiply.1797, broadcast.767)
  multiply.1799 = f32[32,128,3072]{2,1,0} multiply(add.1798, multiply.1786)
  add.1800 = f32[32,128,3072]{2,1,0} add(multiply.1799, broadcast.765)
  multiply.1811 = f32[32,128,3072]{2,1,0} multiply(clamp.1785, add.1800)
  multiply.1801 = f32[32,128,3072]{2,1,0} multiply(multiply.1786, broadcast.779)
  add.1802 = f32[32,128,3072]{2,1,0} add(multiply.1801, broadcast.763)
  multiply.1803 = f32[32,128,3072]{2,1,0} multiply(add.1802, multiply.1786)
  add.1804 = f32[32,128,3072]{2,1,0} add(multiply.1803, broadcast.761)
  multiply.1805 = f32[32,128,3072]{2,1,0} multiply(add.1804, multiply.1786)
  add.1806 = f32[32,128,3072]{2,1,0} add(multiply.1805, broadcast.759)
  multiply.1807 = f32[32,128,3072]{2,1,0} multiply(add.1806, multiply.1786)
  add.1808 = f32[32,128,3072]{2,1,0} add(multiply.1807, broadcast.757)
  multiply.1809 = f32[32,128,3072]{2,1,0} multiply(add.1808, multiply.1786)
  add.1810 = f32[32,128,3072]{2,1,0} add(multiply.1809, broadcast.755)
  divide.1812 = f32[32,128,3072]{2,1,0} divide(multiply.1811, add.1810)
  add.1813 = f32[32,128,3072]{2,1,0} add(divide.1812, broadcast.740)
  multiply.1814 = f32[32,128,3072]{2,1,0} multiply(add.1783, add.1813)
  divide.1815 = f32[32,128,3072]{2,1,0} divide(multiply.1814, broadcast.738)
  Arg_85.657 = f32[3072,768]{1,0} parameter(85)
  dot.1816 = f32[32,128,768]{2,1,0} dot(divide.1815, Arg_85.657), lhs_contracting_dims={2}, rhs_contracting_dims={0}
  Arg_86.658 = f32[768]{0} parameter(86)
  reshape.1817 = f32[1,1,768]{2,1,0} reshape(Arg_86.658)
  broadcast.1818 = f32[1,1,768]{2,1,0} broadcast(reshape.1817), dimensions={0,1,2}
  reshape.1819 = f32[768]{0} reshape(broadcast.1818)
  broadcast.1820 = f32[32,128,768]{2,1,0} broadcast(reshape.1819), dimensions={2}
  add.1821 = f32[32,128,768]{2,1,0} add(dot.1816, broadcast.1820)
  add.1822 = f32[32,128,768]{2,1,0} add(add.1821, add.1777)
  reduce.1823 = f32[32,128]{1,0} reduce(add.1822, constant.785), dimensions={2}, to_apply=region_42.352
  divide.1824 = f32[32,128]{1,0} divide(reduce.1823, broadcast.736)
  reshape.1831 = f32[32,128,1]{2,1,0} reshape(divide.1824)
  broadcast.1833 = f32[32,128,1]{2,1,0} broadcast(reshape.1831), dimensions={0,1,2}
  reshape.1834 = f32[32,128]{1,0} reshape(broadcast.1833)
  broadcast.1835 = f32[32,128,768]{2,1,0} broadcast(reshape.1834), dimensions={0,1}
  subtract.1836 = f32[32,128,768]{2,1,0} subtract(add.1822, broadcast.1835)
  multiply.1825 = f32[32,128,768]{2,1,0} multiply(add.1822, add.1822)
  reduce.1826 = f32[32,128]{1,0} reduce(multiply.1825, constant.785), dimensions={2}, to_apply=region_43.356
  divide.1827 = f32[32,128]{1,0} divide(reduce.1826, broadcast.736)
  multiply.1828 = f32[32,128]{1,0} multiply(divide.1824, divide.1824)
  subtract.1829 = f32[32,128]{1,0} subtract(divide.1827, multiply.1828)
  maximum.1830 = f32[32,128]{1,0} maximum(subtract.1829, broadcast.734)
  reshape.1832 = f32[32,128,1]{2,1,0} reshape(maximum.1830)
  add.1837 = f32[32,128,1]{2,1,0} add(reshape.1832, broadcast.732)
  rsqrt.1838 = f32[32,128,1]{2,1,0} rsqrt(add.1837)
  broadcast.1840 = f32[32,128,1]{2,1,0} broadcast(rsqrt.1838), dimensions={0,1,2}
  reshape.1841 = f32[32,128]{1,0} reshape(broadcast.1840)
  broadcast.1842 = f32[32,128,768]{2,1,0} broadcast(reshape.1841), dimensions={0,1}
  Arg_87.659 = f32[768]{0} parameter(87)
  reshape.1839 = f32[1,1,768]{2,1,0} reshape(Arg_87.659)
  broadcast.1843 = f32[1,1,768]{2,1,0} broadcast(reshape.1839), dimensions={0,1,2}
  reshape.1844 = f32[768]{0} reshape(broadcast.1843)
  broadcast.1845 = f32[32,128,768]{2,1,0} broadcast(reshape.1844), dimensions={2}
  multiply.1846 = f32[32,128,768]{2,1,0} multiply(broadcast.1842, broadcast.1845)
  multiply.1847 = f32[32,128,768]{2,1,0} multiply(subtract.1836, multiply.1846)
  Arg_88.660 = f32[1,1,768]{2,1,0} parameter(88)
  broadcast.1848 = f32[1,1,768]{2,1,0} broadcast(Arg_88.660), dimensions={0,1,2}
  reshape.1849 = f32[768]{0} reshape(broadcast.1848)
  broadcast.1850 = f32[32,128,768]{2,1,0} broadcast(reshape.1849), dimensions={2}
  add.1851 = f32[32,128,768]{2,1,0} add(multiply.1847, broadcast.1850)
  Arg_89.661 = f32[768,2304]{1,0} parameter(89)
  dot.1852 = f32[32,128,2304]{2,1,0} dot(add.1851, Arg_89.661), lhs_contracting_dims={2}, rhs_contracting_dims={0}
  Arg_90.662 = f32[2304]{0} parameter(90)
  reshape.1853 = f32[1,1,2304]{2,1,0} reshape(Arg_90.662)
  broadcast.1854 = f32[1,1,2304]{2,1,0} broadcast(reshape.1853), dimensions={0,1,2}
  reshape.1855 = f32[2304]{0} reshape(broadcast.1854)
  broadcast.1856 = f32[32,128,2304]{2,1,0} broadcast(reshape.1855), dimensions={2}
  add.1857 = f32[32,128,2304]{2,1,0} add(dot.1852, broadcast.1856)
  reshape.1858 = f32[32,128,768,3]{3,2,1,0} reshape(add.1857)
  slice.1859 = f32[32,128,768,1]{3,2,1,0} slice(reshape.1858), slice={[0:32], [0:128], [0:768], [0:1]}
  reshape.1862 = f32[32,128,12,64]{3,2,1,0} reshape(slice.1859)
  divide.1868 = f32[32,128,12,64]{3,2,1,0} divide(reshape.1862, broadcast.744)
  slice.1861 = f32[32,128,768,1]{3,2,1,0} slice(reshape.1858), slice={[0:32], [0:128], [0:768], [2:3]}
  reshape.1864 = f32[32,128,12,64]{3,2,1,0} reshape(slice.1861)
  call.1869 = f32[32,12,128,128]{3,2,1,0} call(divide.1868, reshape.1864), to_apply=_einsum_15.360
  reshape.1865 = s32[32,1,1,128]{3,2,1,0} reshape(Arg_154.726)
  compare.1866 = pred[32,1,1,128]{3,2,1,0} compare(reshape.1865, broadcast.750), direction=GT
  select.1867 = f32[32,1,1,128]{3,2,1,0} select(compare.1866, broadcast.748, broadcast.746)
  broadcast.1870 = f32[32,1,1,128]{3,2,1,0} broadcast(select.1867), dimensions={0,1,2,3}
  reshape.1871 = f32[32,128]{1,0} reshape(broadcast.1870)
  broadcast.1872 = f32[32,12,128,128]{3,2,1,0} broadcast(reshape.1871), dimensions={0,3}
  add.1873 = f32[32,12,128,128]{3,2,1,0} add(call.1869, broadcast.1872)
  reduce.1874 = f32[32,12,128]{2,1,0} reduce(add.1873, constant.784), dimensions={3}, to_apply=region_44.364
  reshape.1875 = f32[32,12,128,1]{3,2,1,0} reshape(reduce.1874)
  broadcast.1876 = f32[32,12,128,1]{3,2,1,0} broadcast(reshape.1875), dimensions={0,1,2,3}
  reshape.1877 = f32[32,12,128]{2,1,0} reshape(broadcast.1876)
  broadcast.1878 = f32[32,12,128,128]{3,2,1,0} broadcast(reshape.1877), dimensions={0,1,2}
  subtract.1879 = f32[32,12,128,128]{3,2,1,0} subtract(add.1873, broadcast.1878)
  exponential.1880 = f32[32,12,128,128]{3,2,1,0} exponential(subtract.1879)
  reduce.1881 = f32[32,12,128]{2,1,0} reduce(exponential.1880, constant.785), dimensions={3}, to_apply=region_45.368
  reshape.1882 = f32[32,12,128,1]{3,2,1,0} reshape(reduce.1881)
  broadcast.1883 = f32[32,12,128,1]{3,2,1,0} broadcast(reshape.1882), dimensions={0,1,2,3}
  reshape.1884 = f32[32,12,128]{2,1,0} reshape(broadcast.1883)
  broadcast.1885 = f32[32,12,128,128]{3,2,1,0} broadcast(reshape.1884), dimensions={0,1,2}
  divide.1886 = f32[32,12,128,128]{3,2,1,0} divide(exponential.1880, broadcast.1885)
  slice.1860 = f32[32,128,768,1]{3,2,1,0} slice(reshape.1858), slice={[0:32], [0:128], [0:768], [1:2]}
  reshape.1863 = f32[32,128,12,64]{3,2,1,0} reshape(slice.1860)
  call.1887 = f32[32,128,12,64]{1,3,2,0} call(divide.1886, reshape.1863), to_apply=_einsum_16.372
  reshape.1888 = f32[32,128,768]{2,1,0} reshape(call.1887)
  Arg_91.663 = f32[768,768]{1,0} parameter(91)
  dot.1889 = f32[32,128,768]{2,1,0} dot(reshape.1888, Arg_91.663), lhs_contracting_dims={2}, rhs_contracting_dims={0}
  Arg_92.664 = f32[768]{0} parameter(92)
  reshape.1890 = f32[1,1,768]{2,1,0} reshape(Arg_92.664)
  broadcast.1891 = f32[1,1,768]{2,1,0} broadcast(reshape.1890), dimensions={0,1,2}
  reshape.1892 = f32[768]{0} reshape(broadcast.1891)
  broadcast.1893 = f32[32,128,768]{2,1,0} broadcast(reshape.1892), dimensions={2}
  add.1894 = f32[32,128,768]{2,1,0} add(dot.1889, broadcast.1893)
  add.1895 = f32[32,128,768]{2,1,0} add(add.1894, add.1851)
  reduce.1896 = f32[32,128]{1,0} reduce(add.1895, constant.785), dimensions={2}, to_apply=region_46.377
  divide.1897 = f32[32,128]{1,0} divide(reduce.1896, broadcast.736)
  reshape.1904 = f32[32,128,1]{2,1,0} reshape(divide.1897)
  broadcast.1906 = f32[32,128,1]{2,1,0} broadcast(reshape.1904), dimensions={0,1,2}
  reshape.1907 = f32[32,128]{1,0} reshape(broadcast.1906)
  broadcast.1908 = f32[32,128,768]{2,1,0} broadcast(reshape.1907), dimensions={0,1}
  subtract.1909 = f32[32,128,768]{2,1,0} subtract(add.1895, broadcast.1908)
  multiply.1898 = f32[32,128,768]{2,1,0} multiply(add.1895, add.1895)
  reduce.1899 = f32[32,128]{1,0} reduce(multiply.1898, constant.785), dimensions={2}, to_apply=region_47.381
  divide.1900 = f32[32,128]{1,0} divide(reduce.1899, broadcast.736)
  multiply.1901 = f32[32,128]{1,0} multiply(divide.1897, divide.1897)
  subtract.1902 = f32[32,128]{1,0} subtract(divide.1900, multiply.1901)
  maximum.1903 = f32[32,128]{1,0} maximum(subtract.1902, broadcast.734)
  reshape.1905 = f32[32,128,1]{2,1,0} reshape(maximum.1903)
  add.1910 = f32[32,128,1]{2,1,0} add(reshape.1905, broadcast.732)
  rsqrt.1911 = f32[32,128,1]{2,1,0} rsqrt(add.1910)
  broadcast.1913 = f32[32,128,1]{2,1,0} broadcast(rsqrt.1911), dimensions={0,1,2}
  reshape.1914 = f32[32,128]{1,0} reshape(broadcast.1913)
  broadcast.1915 = f32[32,128,768]{2,1,0} broadcast(reshape.1914), dimensions={0,1}
  Arg_93.665 = f32[768]{0} parameter(93)
  reshape.1912 = f32[1,1,768]{2,1,0} reshape(Arg_93.665)
  broadcast.1916 = f32[1,1,768]{2,1,0} broadcast(reshape.1912), dimensions={0,1,2}
  reshape.1917 = f32[768]{0} reshape(broadcast.1916)
  broadcast.1918 = f32[32,128,768]{2,1,0} broadcast(reshape.1917), dimensions={2}
  multiply.1919 = f32[32,128,768]{2,1,0} multiply(broadcast.1915, broadcast.1918)
  multiply.1920 = f32[32,128,768]{2,1,0} multiply(subtract.1909, multiply.1919)
  Arg_94.666 = f32[1,1,768]{2,1,0} parameter(94)
  broadcast.1921 = f32[1,1,768]{2,1,0} broadcast(Arg_94.666), dimensions={0,1,2}
  reshape.1922 = f32[768]{0} reshape(broadcast.1921)
  broadcast.1923 = f32[32,128,768]{2,1,0} broadcast(reshape.1922), dimensions={2}
  add.1924 = f32[32,128,768]{2,1,0} add(multiply.1920, broadcast.1923)
  Arg_95.667 = f32[768,3072]{1,0} parameter(95)
  dot.1925 = f32[32,128,3072]{2,1,0} dot(add.1924, Arg_95.667), lhs_contracting_dims={2}, rhs_contracting_dims={0}
  Arg_96.668 = f32[3072]{0} parameter(96)
  reshape.1926 = f32[1,1,3072]{2,1,0} reshape(Arg_96.668)
  broadcast.1927 = f32[1,1,3072]{2,1,0} broadcast(reshape.1926), dimensions={0,1,2}
  reshape.1928 = f32[3072]{0} reshape(broadcast.1927)
  broadcast.1929 = f32[32,128,3072]{2,1,0} broadcast(reshape.1928), dimensions={2}
  add.1930 = f32[32,128,3072]{2,1,0} add(dot.1925, broadcast.1929)
  divide.1931 = f32[32,128,3072]{2,1,0} divide(add.1930, broadcast.742)
  clamp.1932 = f32[32,128,3072]{2,1,0} clamp(broadcast.783, divide.1931, broadcast.781)
  multiply.1933 = f32[32,128,3072]{2,1,0} multiply(clamp.1932, clamp.1932)
  multiply.1934 = f32[32,128,3072]{2,1,0} multiply(multiply.1933, broadcast.779)
  add.1935 = f32[32,128,3072]{2,1,0} add(multiply.1934, broadcast.777)
  multiply.1936 = f32[32,128,3072]{2,1,0} multiply(add.1935, multiply.1933)
  add.1937 = f32[32,128,3072]{2,1,0} add(multiply.1936, broadcast.775)
  multiply.1938 = f32[32,128,3072]{2,1,0} multiply(add.1937, multiply.1933)
  add.1939 = f32[32,128,3072]{2,1,0} add(multiply.1938, broadcast.773)
  multiply.1940 = f32[32,128,3072]{2,1,0} multiply(add.1939, multiply.1933)
  add.1941 = f32[32,128,3072]{2,1,0} add(multiply.1940, broadcast.771)
  multiply.1942 = f32[32,128,3072]{2,1,0} multiply(add.1941, multiply.1933)
  add.1943 = f32[32,128,3072]{2,1,0} add(multiply.1942, broadcast.769)
  multiply.1944 = f32[32,128,3072]{2,1,0} multiply(add.1943, multiply.1933)
  add.1945 = f32[32,128,3072]{2,1,0} add(multiply.1944, broadcast.767)
  multiply.1946 = f32[32,128,3072]{2,1,0} multiply(add.1945, multiply.1933)
  add.1947 = f32[32,128,3072]{2,1,0} add(multiply.1946, broadcast.765)
  multiply.1958 = f32[32,128,3072]{2,1,0} multiply(clamp.1932, add.1947)
  multiply.1948 = f32[32,128,3072]{2,1,0} multiply(multiply.1933, broadcast.779)
  add.1949 = f32[32,128,3072]{2,1,0} add(multiply.1948, broadcast.763)
  multiply.1950 = f32[32,128,3072]{2,1,0} multiply(add.1949, multiply.1933)
  add.1951 = f32[32,128,3072]{2,1,0} add(multiply.1950, broadcast.761)
  multiply.1952 = f32[32,128,3072]{2,1,0} multiply(add.1951, multiply.1933)
  add.1953 = f32[32,128,3072]{2,1,0} add(multiply.1952, broadcast.759)
  multiply.1954 = f32[32,128,3072]{2,1,0} multiply(add.1953, multiply.1933)
  add.1955 = f32[32,128,3072]{2,1,0} add(multiply.1954, broadcast.757)
  multiply.1956 = f32[32,128,3072]{2,1,0} multiply(add.1955, multiply.1933)
  add.1957 = f32[32,128,3072]{2,1,0} add(multiply.1956, broadcast.755)
  divide.1959 = f32[32,128,3072]{2,1,0} divide(multiply.1958, add.1957)
  add.1960 = f32[32,128,3072]{2,1,0} add(divide.1959, broadcast.740)
  multiply.1961 = f32[32,128,3072]{2,1,0} multiply(add.1930, add.1960)
  divide.1962 = f32[32,128,3072]{2,1,0} divide(multiply.1961, broadcast.738)
  Arg_97.669 = f32[3072,768]{1,0} parameter(97)
  dot.1963 = f32[32,128,768]{2,1,0} dot(divide.1962, Arg_97.669), lhs_contracting_dims={2}, rhs_contracting_dims={0}
  Arg_98.670 = f32[768]{0} parameter(98)
  reshape.1964 = f32[1,1,768]{2,1,0} reshape(Arg_98.670)
  broadcast.1965 = f32[1,1,768]{2,1,0} broadcast(reshape.1964), dimensions={0,1,2}
  reshape.1966 = f32[768]{0} reshape(broadcast.1965)
  broadcast.1967 = f32[32,128,768]{2,1,0} broadcast(reshape.1966), dimensions={2}
  add.1968 = f32[32,128,768]{2,1,0} add(dot.1963, broadcast.1967)
  add.1969 = f32[32,128,768]{2,1,0} add(add.1968, add.1924)
  reduce.1970 = f32[32,128]{1,0} reduce(add.1969, constant.785), dimensions={2}, to_apply=region_48.385
  divide.1971 = f32[32,128]{1,0} divide(reduce.1970, broadcast.736)
  reshape.1978 = f32[32,128,1]{2,1,0} reshape(divide.1971)
  broadcast.1980 = f32[32,128,1]{2,1,0} broadcast(reshape.1978), dimensions={0,1,2}
  reshape.1981 = f32[32,128]{1,0} reshape(broadcast.1980)
  broadcast.1982 = f32[32,128,768]{2,1,0} broadcast(reshape.1981), dimensions={0,1}
  subtract.1983 = f32[32,128,768]{2,1,0} subtract(add.1969, broadcast.1982)
  multiply.1972 = f32[32,128,768]{2,1,0} multiply(add.1969, add.1969)
  reduce.1973 = f32[32,128]{1,0} reduce(multiply.1972, constant.785), dimensions={2}, to_apply=region_49.389
  divide.1974 = f32[32,128]{1,0} divide(reduce.1973, broadcast.736)
  multiply.1975 = f32[32,128]{1,0} multiply(divide.1971, divide.1971)
  subtract.1976 = f32[32,128]{1,0} subtract(divide.1974, multiply.1975)
  maximum.1977 = f32[32,128]{1,0} maximum(subtract.1976, broadcast.734)
  reshape.1979 = f32[32,128,1]{2,1,0} reshape(maximum.1977)
  add.1984 = f32[32,128,1]{2,1,0} add(reshape.1979, broadcast.732)
  rsqrt.1985 = f32[32,128,1]{2,1,0} rsqrt(add.1984)
  broadcast.1987 = f32[32,128,1]{2,1,0} broadcast(rsqrt.1985), dimensions={0,1,2}
  reshape.1988 = f32[32,128]{1,0} reshape(broadcast.1987)
  broadcast.1989 = f32[32,128,768]{2,1,0} broadcast(reshape.1988), dimensions={0,1}
  Arg_99.671 = f32[768]{0} parameter(99)
  reshape.1986 = f32[1,1,768]{2,1,0} reshape(Arg_99.671)
  broadcast.1990 = f32[1,1,768]{2,1,0} broadcast(reshape.1986), dimensions={0,1,2}
  reshape.1991 = f32[768]{0} reshape(broadcast.1990)
  broadcast.1992 = f32[32,128,768]{2,1,0} broadcast(reshape.1991), dimensions={2}
  multiply.1993 = f32[32,128,768]{2,1,0} multiply(broadcast.1989, broadcast.1992)
  multiply.1994 = f32[32,128,768]{2,1,0} multiply(subtract.1983, multiply.1993)
  Arg_100.672 = f32[1,1,768]{2,1,0} parameter(100)
  broadcast.1995 = f32[1,1,768]{2,1,0} broadcast(Arg_100.672), dimensions={0,1,2}
  reshape.1996 = f32[768]{0} reshape(broadcast.1995)
  broadcast.1997 = f32[32,128,768]{2,1,0} broadcast(reshape.1996), dimensions={2}
  add.1998 = f32[32,128,768]{2,1,0} add(multiply.1994, broadcast.1997)
  Arg_101.673 = f32[768,2304]{1,0} parameter(101)
  dot.1999 = f32[32,128,2304]{2,1,0} dot(add.1998, Arg_101.673), lhs_contracting_dims={2}, rhs_contracting_dims={0}
  Arg_102.674 = f32[2304]{0} parameter(102)
  reshape.2000 = f32[1,1,2304]{2,1,0} reshape(Arg_102.674)
  broadcast.2001 = f32[1,1,2304]{2,1,0} broadcast(reshape.2000), dimensions={0,1,2}
  reshape.2002 = f32[2304]{0} reshape(broadcast.2001)
  broadcast.2003 = f32[32,128,2304]{2,1,0} broadcast(reshape.2002), dimensions={2}
  add.2004 = f32[32,128,2304]{2,1,0} add(dot.1999, broadcast.2003)
  reshape.2005 = f32[32,128,768,3]{3,2,1,0} reshape(add.2004)
  slice.2006 = f32[32,128,768,1]{3,2,1,0} slice(reshape.2005), slice={[0:32], [0:128], [0:768], [0:1]}
  reshape.2009 = f32[32,128,12,64]{3,2,1,0} reshape(slice.2006)
  divide.2015 = f32[32,128,12,64]{3,2,1,0} divide(reshape.2009, broadcast.744)
  slice.2008 = f32[32,128,768,1]{3,2,1,0} slice(reshape.2005), slice={[0:32], [0:128], [0:768], [2:3]}
  reshape.2011 = f32[32,128,12,64]{3,2,1,0} reshape(slice.2008)
  call.2016 = f32[32,12,128,128]{3,2,1,0} call(divide.2015, reshape.2011), to_apply=_einsum_17.393
  reshape.2012 = s32[32,1,1,128]{3,2,1,0} reshape(Arg_154.726)
  compare.2013 = pred[32,1,1,128]{3,2,1,0} compare(reshape.2012, broadcast.750), direction=GT
  select.2014 = f32[32,1,1,128]{3,2,1,0} select(compare.2013, broadcast.748, broadcast.746)
  broadcast.2017 = f32[32,1,1,128]{3,2,1,0} broadcast(select.2014), dimensions={0,1,2,3}
  reshape.2018 = f32[32,128]{1,0} reshape(broadcast.2017)
  broadcast.2019 = f32[32,12,128,128]{3,2,1,0} broadcast(reshape.2018), dimensions={0,3}
  add.2020 = f32[32,12,128,128]{3,2,1,0} add(call.2016, broadcast.2019)
  reduce.2021 = f32[32,12,128]{2,1,0} reduce(add.2020, constant.784), dimensions={3}, to_apply=region_50.397
  reshape.2022 = f32[32,12,128,1]{3,2,1,0} reshape(reduce.2021)
  broadcast.2023 = f32[32,12,128,1]{3,2,1,0} broadcast(reshape.2022), dimensions={0,1,2,3}
  reshape.2024 = f32[32,12,128]{2,1,0} reshape(broadcast.2023)
  broadcast.2025 = f32[32,12,128,128]{3,2,1,0} broadcast(reshape.2024), dimensions={0,1,2}
  subtract.2026 = f32[32,12,128,128]{3,2,1,0} subtract(add.2020, broadcast.2025)
  exponential.2027 = f32[32,12,128,128]{3,2,1,0} exponential(subtract.2026)
  reduce.2028 = f32[32,12,128]{2,1,0} reduce(exponential.2027, constant.785), dimensions={3}, to_apply=region_51.401
  reshape.2029 = f32[32,12,128,1]{3,2,1,0} reshape(reduce.2028)
  broadcast.2030 = f32[32,12,128,1]{3,2,1,0} broadcast(reshape.2029), dimensions={0,1,2,3}
  reshape.2031 = f32[32,12,128]{2,1,0} reshape(broadcast.2030)
  broadcast.2032 = f32[32,12,128,128]{3,2,1,0} broadcast(reshape.2031), dimensions={0,1,2}
  divide.2033 = f32[32,12,128,128]{3,2,1,0} divide(exponential.2027, broadcast.2032)
  slice.2007 = f32[32,128,768,1]{3,2,1,0} slice(reshape.2005), slice={[0:32], [0:128], [0:768], [1:2]}
  reshape.2010 = f32[32,128,12,64]{3,2,1,0} reshape(slice.2007)
  call.2034 = f32[32,128,12,64]{1,3,2,0} call(divide.2033, reshape.2010), to_apply=_einsum_18.405
  reshape.2035 = f32[32,128,768]{2,1,0} reshape(call.2034)
  Arg_103.675 = f32[768,768]{1,0} parameter(103)
  dot.2036 = f32[32,128,768]{2,1,0} dot(reshape.2035, Arg_103.675), lhs_contracting_dims={2}, rhs_contracting_dims={0}
  Arg_104.676 = f32[768]{0} parameter(104)
  reshape.2037 = f32[1,1,768]{2,1,0} reshape(Arg_104.676)
  broadcast.2038 = f32[1,1,768]{2,1,0} broadcast(reshape.2037), dimensions={0,1,2}
  reshape.2039 = f32[768]{0} reshape(broadcast.2038)
  broadcast.2040 = f32[32,128,768]{2,1,0} broadcast(reshape.2039), dimensions={2}
  add.2041 = f32[32,128,768]{2,1,0} add(dot.2036, broadcast.2040)
  add.2042 = f32[32,128,768]{2,1,0} add(add.2041, add.1998)
  reduce.2043 = f32[32,128]{1,0} reduce(add.2042, constant.785), dimensions={2}, to_apply=region_52.410
  divide.2044 = f32[32,128]{1,0} divide(reduce.2043, broadcast.736)
  reshape.2051 = f32[32,128,1]{2,1,0} reshape(divide.2044)
  broadcast.2053 = f32[32,128,1]{2,1,0} broadcast(reshape.2051), dimensions={0,1,2}
  reshape.2054 = f32[32,128]{1,0} reshape(broadcast.2053)
  broadcast.2055 = f32[32,128,768]{2,1,0} broadcast(reshape.2054), dimensions={0,1}
  subtract.2056 = f32[32,128,768]{2,1,0} subtract(add.2042, broadcast.2055)
  multiply.2045 = f32[32,128,768]{2,1,0} multiply(add.2042, add.2042)
  reduce.2046 = f32[32,128]{1,0} reduce(multiply.2045, constant.785), dimensions={2}, to_apply=region_53.414
  divide.2047 = f32[32,128]{1,0} divide(reduce.2046, broadcast.736)
  multiply.2048 = f32[32,128]{1,0} multiply(divide.2044, divide.2044)
  subtract.2049 = f32[32,128]{1,0} subtract(divide.2047, multiply.2048)
  maximum.2050 = f32[32,128]{1,0} maximum(subtract.2049, broadcast.734)
  reshape.2052 = f32[32,128,1]{2,1,0} reshape(maximum.2050)
  add.2057 = f32[32,128,1]{2,1,0} add(reshape.2052, broadcast.732)
  rsqrt.2058 = f32[32,128,1]{2,1,0} rsqrt(add.2057)
  broadcast.2060 = f32[32,128,1]{2,1,0} broadcast(rsqrt.2058), dimensions={0,1,2}
  reshape.2061 = f32[32,128]{1,0} reshape(broadcast.2060)
  broadcast.2062 = f32[32,128,768]{2,1,0} broadcast(reshape.2061), dimensions={0,1}
  Arg_105.677 = f32[768]{0} parameter(105)
  reshape.2059 = f32[1,1,768]{2,1,0} reshape(Arg_105.677)
  broadcast.2063 = f32[1,1,768]{2,1,0} broadcast(reshape.2059), dimensions={0,1,2}
  reshape.2064 = f32[768]{0} reshape(broadcast.2063)
  broadcast.2065 = f32[32,128,768]{2,1,0} broadcast(reshape.2064), dimensions={2}
  multiply.2066 = f32[32,128,768]{2,1,0} multiply(broadcast.2062, broadcast.2065)
  multiply.2067 = f32[32,128,768]{2,1,0} multiply(subtract.2056, multiply.2066)
  Arg_106.678 = f32[1,1,768]{2,1,0} parameter(106)
  broadcast.2068 = f32[1,1,768]{2,1,0} broadcast(Arg_106.678), dimensions={0,1,2}
  reshape.2069 = f32[768]{0} reshape(broadcast.2068)
  broadcast.2070 = f32[32,128,768]{2,1,0} broadcast(reshape.2069), dimensions={2}
  add.2071 = f32[32,128,768]{2,1,0} add(multiply.2067, broadcast.2070)
  Arg_107.679 = f32[768,3072]{1,0} parameter(107)
  dot.2072 = f32[32,128,3072]{2,1,0} dot(add.2071, Arg_107.679), lhs_contracting_dims={2}, rhs_contracting_dims={0}
  Arg_108.680 = f32[3072]{0} parameter(108)
  reshape.2073 = f32[1,1,3072]{2,1,0} reshape(Arg_108.680)
  broadcast.2074 = f32[1,1,3072]{2,1,0} broadcast(reshape.2073), dimensions={0,1,2}
  reshape.2075 = f32[3072]{0} reshape(broadcast.2074)
  broadcast.2076 = f32[32,128,3072]{2,1,0} broadcast(reshape.2075), dimensions={2}
  add.2077 = f32[32,128,3072]{2,1,0} add(dot.2072, broadcast.2076)
  divide.2078 = f32[32,128,3072]{2,1,0} divide(add.2077, broadcast.742)
  clamp.2079 = f32[32,128,3072]{2,1,0} clamp(broadcast.783, divide.2078, broadcast.781)
  multiply.2080 = f32[32,128,3072]{2,1,0} multiply(clamp.2079, clamp.2079)
  multiply.2081 = f32[32,128,3072]{2,1,0} multiply(multiply.2080, broadcast.779)
  add.2082 = f32[32,128,3072]{2,1,0} add(multiply.2081, broadcast.777)
  multiply.2083 = f32[32,128,3072]{2,1,0} multiply(add.2082, multiply.2080)
  add.2084 = f32[32,128,3072]{2,1,0} add(multiply.2083, broadcast.775)
  multiply.2085 = f32[32,128,3072]{2,1,0} multiply(add.2084, multiply.2080)
  add.2086 = f32[32,128,3072]{2,1,0} add(multiply.2085, broadcast.773)
  multiply.2087 = f32[32,128,3072]{2,1,0} multiply(add.2086, multiply.2080)
  add.2088 = f32[32,128,3072]{2,1,0} add(multiply.2087, broadcast.771)
  multiply.2089 = f32[32,128,3072]{2,1,0} multiply(add.2088, multiply.2080)
  add.2090 = f32[32,128,3072]{2,1,0} add(multiply.2089, broadcast.769)
  multiply.2091 = f32[32,128,3072]{2,1,0} multiply(add.2090, multiply.2080)
  add.2092 = f32[32,128,3072]{2,1,0} add(multiply.2091, broadcast.767)
  multiply.2093 = f32[32,128,3072]{2,1,0} multiply(add.2092, multiply.2080)
  add.2094 = f32[32,128,3072]{2,1,0} add(multiply.2093, broadcast.765)
  multiply.2105 = f32[32,128,3072]{2,1,0} multiply(clamp.2079, add.2094)
  multiply.2095 = f32[32,128,3072]{2,1,0} multiply(multiply.2080, broadcast.779)
  add.2096 = f32[32,128,3072]{2,1,0} add(multiply.2095, broadcast.763)
  multiply.2097 = f32[32,128,3072]{2,1,0} multiply(add.2096, multiply.2080)
  add.2098 = f32[32,128,3072]{2,1,0} add(multiply.2097, broadcast.761)
  multiply.2099 = f32[32,128,3072]{2,1,0} multiply(add.2098, multiply.2080)
  add.2100 = f32[32,128,3072]{2,1,0} add(multiply.2099, broadcast.759)
  multiply.2101 = f32[32,128,3072]{2,1,0} multiply(add.2100, multiply.2080)
  add.2102 = f32[32,128,3072]{2,1,0} add(multiply.2101, broadcast.757)
  multiply.2103 = f32[32,128,3072]{2,1,0} multiply(add.2102, multiply.2080)
  add.2104 = f32[32,128,3072]{2,1,0} add(multiply.2103, broadcast.755)
  divide.2106 = f32[32,128,3072]{2,1,0} divide(multiply.2105, add.2104)
  add.2107 = f32[32,128,3072]{2,1,0} add(divide.2106, broadcast.740)
  multiply.2108 = f32[32,128,3072]{2,1,0} multiply(add.2077, add.2107)
  divide.2109 = f32[32,128,3072]{2,1,0} divide(multiply.2108, broadcast.738)
  Arg_109.681 = f32[3072,768]{1,0} parameter(109)
  dot.2110 = f32[32,128,768]{2,1,0} dot(divide.2109, Arg_109.681), lhs_contracting_dims={2}, rhs_contracting_dims={0}
  Arg_110.682 = f32[768]{0} parameter(110)
  reshape.2111 = f32[1,1,768]{2,1,0} reshape(Arg_110.682)
  broadcast.2112 = f32[1,1,768]{2,1,0} broadcast(reshape.2111), dimensions={0,1,2}
  reshape.2113 = f32[768]{0} reshape(broadcast.2112)
  broadcast.2114 = f32[32,128,768]{2,1,0} broadcast(reshape.2113), dimensions={2}
  add.2115 = f32[32,128,768]{2,1,0} add(dot.2110, broadcast.2114)
  add.2116 = f32[32,128,768]{2,1,0} add(add.2115, add.2071)
  reduce.2117 = f32[32,128]{1,0} reduce(add.2116, constant.785), dimensions={2}, to_apply=region_54.418
  divide.2118 = f32[32,128]{1,0} divide(reduce.2117, broadcast.736)
  reshape.2125 = f32[32,128,1]{2,1,0} reshape(divide.2118)
  broadcast.2127 = f32[32,128,1]{2,1,0} broadcast(reshape.2125), dimensions={0,1,2}
  reshape.2128 = f32[32,128]{1,0} reshape(broadcast.2127)
  broadcast.2129 = f32[32,128,768]{2,1,0} broadcast(reshape.2128), dimensions={0,1}
  subtract.2130 = f32[32,128,768]{2,1,0} subtract(add.2116, broadcast.2129)
  multiply.2119 = f32[32,128,768]{2,1,0} multiply(add.2116, add.2116)
  reduce.2120 = f32[32,128]{1,0} reduce(multiply.2119, constant.785), dimensions={2}, to_apply=region_55.422
  divide.2121 = f32[32,128]{1,0} divide(reduce.2120, broadcast.736)
  multiply.2122 = f32[32,128]{1,0} multiply(divide.2118, divide.2118)
  subtract.2123 = f32[32,128]{1,0} subtract(divide.2121, multiply.2122)
  maximum.2124 = f32[32,128]{1,0} maximum(subtract.2123, broadcast.734)
  reshape.2126 = f32[32,128,1]{2,1,0} reshape(maximum.2124)
  add.2131 = f32[32,128,1]{2,1,0} add(reshape.2126, broadcast.732)
  rsqrt.2132 = f32[32,128,1]{2,1,0} rsqrt(add.2131)
  broadcast.2134 = f32[32,128,1]{2,1,0} broadcast(rsqrt.2132), dimensions={0,1,2}
  reshape.2135 = f32[32,128]{1,0} reshape(broadcast.2134)
  broadcast.2136 = f32[32,128,768]{2,1,0} broadcast(reshape.2135), dimensions={0,1}
  Arg_111.683 = f32[768]{0} parameter(111)
  reshape.2133 = f32[1,1,768]{2,1,0} reshape(Arg_111.683)
  broadcast.2137 = f32[1,1,768]{2,1,0} broadcast(reshape.2133), dimensions={0,1,2}
  reshape.2138 = f32[768]{0} reshape(broadcast.2137)
  broadcast.2139 = f32[32,128,768]{2,1,0} broadcast(reshape.2138), dimensions={2}
  multiply.2140 = f32[32,128,768]{2,1,0} multiply(broadcast.2136, broadcast.2139)
  multiply.2141 = f32[32,128,768]{2,1,0} multiply(subtract.2130, multiply.2140)
  Arg_112.684 = f32[1,1,768]{2,1,0} parameter(112)
  broadcast.2142 = f32[1,1,768]{2,1,0} broadcast(Arg_112.684), dimensions={0,1,2}
  reshape.2143 = f32[768]{0} reshape(broadcast.2142)
  broadcast.2144 = f32[32,128,768]{2,1,0} broadcast(reshape.2143), dimensions={2}
  add.2145 = f32[32,128,768]{2,1,0} add(multiply.2141, broadcast.2144)
  Arg_113.685 = f32[768,2304]{1,0} parameter(113)
  dot.2146 = f32[32,128,2304]{2,1,0} dot(add.2145, Arg_113.685), lhs_contracting_dims={2}, rhs_contracting_dims={0}
  Arg_114.686 = f32[2304]{0} parameter(114)
  reshape.2147 = f32[1,1,2304]{2,1,0} reshape(Arg_114.686)
  broadcast.2148 = f32[1,1,2304]{2,1,0} broadcast(reshape.2147), dimensions={0,1,2}
  reshape.2149 = f32[2304]{0} reshape(broadcast.2148)
  broadcast.2150 = f32[32,128,2304]{2,1,0} broadcast(reshape.2149), dimensions={2}
  add.2151 = f32[32,128,2304]{2,1,0} add(dot.2146, broadcast.2150)
  reshape.2152 = f32[32,128,768,3]{3,2,1,0} reshape(add.2151)
  slice.2153 = f32[32,128,768,1]{3,2,1,0} slice(reshape.2152), slice={[0:32], [0:128], [0:768], [0:1]}
  reshape.2156 = f32[32,128,12,64]{3,2,1,0} reshape(slice.2153)
  divide.2162 = f32[32,128,12,64]{3,2,1,0} divide(reshape.2156, broadcast.744)
  slice.2155 = f32[32,128,768,1]{3,2,1,0} slice(reshape.2152), slice={[0:32], [0:128], [0:768], [2:3]}
  reshape.2158 = f32[32,128,12,64]{3,2,1,0} reshape(slice.2155)
  call.2163 = f32[32,12,128,128]{3,2,1,0} call(divide.2162, reshape.2158), to_apply=_einsum_19.426
  reshape.2159 = s32[32,1,1,128]{3,2,1,0} reshape(Arg_154.726)
  compare.2160 = pred[32,1,1,128]{3,2,1,0} compare(reshape.2159, broadcast.750), direction=GT
  select.2161 = f32[32,1,1,128]{3,2,1,0} select(compare.2160, broadcast.748, broadcast.746)
  broadcast.2164 = f32[32,1,1,128]{3,2,1,0} broadcast(select.2161), dimensions={0,1,2,3}
  reshape.2165 = f32[32,128]{1,0} reshape(broadcast.2164)
  broadcast.2166 = f32[32,12,128,128]{3,2,1,0} broadcast(reshape.2165), dimensions={0,3}
  add.2167 = f32[32,12,128,128]{3,2,1,0} add(call.2163, broadcast.2166)
  reduce.2168 = f32[32,12,128]{2,1,0} reduce(add.2167, constant.784), dimensions={3}, to_apply=region_56.430
  reshape.2169 = f32[32,12,128,1]{3,2,1,0} reshape(reduce.2168)
  broadcast.2170 = f32[32,12,128,1]{3,2,1,0} broadcast(reshape.2169), dimensions={0,1,2,3}
  reshape.2171 = f32[32,12,128]{2,1,0} reshape(broadcast.2170)
  broadcast.2172 = f32[32,12,128,128]{3,2,1,0} broadcast(reshape.2171), dimensions={0,1,2}
  subtract.2173 = f32[32,12,128,128]{3,2,1,0} subtract(add.2167, broadcast.2172)
  exponential.2174 = f32[32,12,128,128]{3,2,1,0} exponential(subtract.2173)
  reduce.2175 = f32[32,12,128]{2,1,0} reduce(exponential.2174, constant.785), dimensions={3}, to_apply=region_57.434
  reshape.2176 = f32[32,12,128,1]{3,2,1,0} reshape(reduce.2175)
  broadcast.2177 = f32[32,12,128,1]{3,2,1,0} broadcast(reshape.2176), dimensions={0,1,2,3}
  reshape.2178 = f32[32,12,128]{2,1,0} reshape(broadcast.2177)
  broadcast.2179 = f32[32,12,128,128]{3,2,1,0} broadcast(reshape.2178), dimensions={0,1,2}
  divide.2180 = f32[32,12,128,128]{3,2,1,0} divide(exponential.2174, broadcast.2179)
  slice.2154 = f32[32,128,768,1]{3,2,1,0} slice(reshape.2152), slice={[0:32], [0:128], [0:768], [1:2]}
  reshape.2157 = f32[32,128,12,64]{3,2,1,0} reshape(slice.2154)
  call.2181 = f32[32,128,12,64]{1,3,2,0} call(divide.2180, reshape.2157), to_apply=_einsum_20.438
  reshape.2182 = f32[32,128,768]{2,1,0} reshape(call.2181)
  Arg_115.687 = f32[768,768]{1,0} parameter(115)
  dot.2183 = f32[32,128,768]{2,1,0} dot(reshape.2182, Arg_115.687), lhs_contracting_dims={2}, rhs_contracting_dims={0}
  Arg_116.688 = f32[768]{0} parameter(116)
  reshape.2184 = f32[1,1,768]{2,1,0} reshape(Arg_116.688)
  broadcast.2185 = f32[1,1,768]{2,1,0} broadcast(reshape.2184), dimensions={0,1,2}
  reshape.2186 = f32[768]{0} reshape(broadcast.2185)
  broadcast.2187 = f32[32,128,768]{2,1,0} broadcast(reshape.2186), dimensions={2}
  add.2188 = f32[32,128,768]{2,1,0} add(dot.2183, broadcast.2187)
  add.2189 = f32[32,128,768]{2,1,0} add(add.2188, add.2145)
  reduce.2190 = f32[32,128]{1,0} reduce(add.2189, constant.785), dimensions={2}, to_apply=region_58.443
  divide.2191 = f32[32,128]{1,0} divide(reduce.2190, broadcast.736)
  reshape.2198 = f32[32,128,1]{2,1,0} reshape(divide.2191)
  broadcast.2200 = f32[32,128,1]{2,1,0} broadcast(reshape.2198), dimensions={0,1,2}
  reshape.2201 = f32[32,128]{1,0} reshape(broadcast.2200)
  broadcast.2202 = f32[32,128,768]{2,1,0} broadcast(reshape.2201), dimensions={0,1}
  subtract.2203 = f32[32,128,768]{2,1,0} subtract(add.2189, broadcast.2202)
  multiply.2192 = f32[32,128,768]{2,1,0} multiply(add.2189, add.2189)
  reduce.2193 = f32[32,128]{1,0} reduce(multiply.2192, constant.785), dimensions={2}, to_apply=region_59.447
  divide.2194 = f32[32,128]{1,0} divide(reduce.2193, broadcast.736)
  multiply.2195 = f32[32,128]{1,0} multiply(divide.2191, divide.2191)
  subtract.2196 = f32[32,128]{1,0} subtract(divide.2194, multiply.2195)
  maximum.2197 = f32[32,128]{1,0} maximum(subtract.2196, broadcast.734)
  reshape.2199 = f32[32,128,1]{2,1,0} reshape(maximum.2197)
  add.2204 = f32[32,128,1]{2,1,0} add(reshape.2199, broadcast.732)
  rsqrt.2205 = f32[32,128,1]{2,1,0} rsqrt(add.2204)
  broadcast.2207 = f32[32,128,1]{2,1,0} broadcast(rsqrt.2205), dimensions={0,1,2}
  reshape.2208 = f32[32,128]{1,0} reshape(broadcast.2207)
  broadcast.2209 = f32[32,128,768]{2,1,0} broadcast(reshape.2208), dimensions={0,1}
  Arg_117.689 = f32[768]{0} parameter(117)
  reshape.2206 = f32[1,1,768]{2,1,0} reshape(Arg_117.689)
  broadcast.2210 = f32[1,1,768]{2,1,0} broadcast(reshape.2206), dimensions={0,1,2}
  reshape.2211 = f32[768]{0} reshape(broadcast.2210)
  broadcast.2212 = f32[32,128,768]{2,1,0} broadcast(reshape.2211), dimensions={2}
  multiply.2213 = f32[32,128,768]{2,1,0} multiply(broadcast.2209, broadcast.2212)
  multiply.2214 = f32[32,128,768]{2,1,0} multiply(subtract.2203, multiply.2213)
  Arg_118.690 = f32[1,1,768]{2,1,0} parameter(118)
  broadcast.2215 = f32[1,1,768]{2,1,0} broadcast(Arg_118.690), dimensions={0,1,2}
  reshape.2216 = f32[768]{0} reshape(broadcast.2215)
  broadcast.2217 = f32[32,128,768]{2,1,0} broadcast(reshape.2216), dimensions={2}
  add.2218 = f32[32,128,768]{2,1,0} add(multiply.2214, broadcast.2217)
  Arg_119.691 = f32[768,3072]{1,0} parameter(119)
  dot.2219 = f32[32,128,3072]{2,1,0} dot(add.2218, Arg_119.691), lhs_contracting_dims={2}, rhs_contracting_dims={0}
  Arg_120.692 = f32[3072]{0} parameter(120)
  reshape.2220 = f32[1,1,3072]{2,1,0} reshape(Arg_120.692)
  broadcast.2221 = f32[1,1,3072]{2,1,0} broadcast(reshape.2220), dimensions={0,1,2}
  reshape.2222 = f32[3072]{0} reshape(broadcast.2221)
  broadcast.2223 = f32[32,128,3072]{2,1,0} broadcast(reshape.2222), dimensions={2}
  add.2224 = f32[32,128,3072]{2,1,0} add(dot.2219, broadcast.2223)
  divide.2225 = f32[32,128,3072]{2,1,0} divide(add.2224, broadcast.742)
  clamp.2226 = f32[32,128,3072]{2,1,0} clamp(broadcast.783, divide.2225, broadcast.781)
  multiply.2227 = f32[32,128,3072]{2,1,0} multiply(clamp.2226, clamp.2226)
  multiply.2228 = f32[32,128,3072]{2,1,0} multiply(multiply.2227, broadcast.779)
  add.2229 = f32[32,128,3072]{2,1,0} add(multiply.2228, broadcast.777)
  multiply.2230 = f32[32,128,3072]{2,1,0} multiply(add.2229, multiply.2227)
  add.2231 = f32[32,128,3072]{2,1,0} add(multiply.2230, broadcast.775)
  multiply.2232 = f32[32,128,3072]{2,1,0} multiply(add.2231, multiply.2227)
  add.2233 = f32[32,128,3072]{2,1,0} add(multiply.2232, broadcast.773)
  multiply.2234 = f32[32,128,3072]{2,1,0} multiply(add.2233, multiply.2227)
  add.2235 = f32[32,128,3072]{2,1,0} add(multiply.2234, broadcast.771)
  multiply.2236 = f32[32,128,3072]{2,1,0} multiply(add.2235, multiply.2227)
  add.2237 = f32[32,128,3072]{2,1,0} add(multiply.2236, broadcast.769)
  multiply.2238 = f32[32,128,3072]{2,1,0} multiply(add.2237, multiply.2227)
  add.2239 = f32[32,128,3072]{2,1,0} add(multiply.2238, broadcast.767)
  multiply.2240 = f32[32,128,3072]{2,1,0} multiply(add.2239, multiply.2227)
  add.2241 = f32[32,128,3072]{2,1,0} add(multiply.2240, broadcast.765)
  multiply.2252 = f32[32,128,3072]{2,1,0} multiply(clamp.2226, add.2241)
  multiply.2242 = f32[32,128,3072]{2,1,0} multiply(multiply.2227, broadcast.779)
  add.2243 = f32[32,128,3072]{2,1,0} add(multiply.2242, broadcast.763)
  multiply.2244 = f32[32,128,3072]{2,1,0} multiply(add.2243, multiply.2227)
  add.2245 = f32[32,128,3072]{2,1,0} add(multiply.2244, broadcast.761)
  multiply.2246 = f32[32,128,3072]{2,1,0} multiply(add.2245, multiply.2227)
  add.2247 = f32[32,128,3072]{2,1,0} add(multiply.2246, broadcast.759)
  multiply.2248 = f32[32,128,3072]{2,1,0} multiply(add.2247, multiply.2227)
  add.2249 = f32[32,128,3072]{2,1,0} add(multiply.2248, broadcast.757)
  multiply.2250 = f32[32,128,3072]{2,1,0} multiply(add.2249, multiply.2227)
  add.2251 = f32[32,128,3072]{2,1,0} add(multiply.2250, broadcast.755)
  divide.2253 = f32[32,128,3072]{2,1,0} divide(multiply.2252, add.2251)
  add.2254 = f32[32,128,3072]{2,1,0} add(divide.2253, broadcast.740)
  multiply.2255 = f32[32,128,3072]{2,1,0} multiply(add.2224, add.2254)
  divide.2256 = f32[32,128,3072]{2,1,0} divide(multiply.2255, broadcast.738)
  Arg_121.693 = f32[3072,768]{1,0} parameter(121)
  dot.2257 = f32[32,128,768]{2,1,0} dot(divide.2256, Arg_121.693), lhs_contracting_dims={2}, rhs_contracting_dims={0}
  Arg_122.694 = f32[768]{0} parameter(122)
  reshape.2258 = f32[1,1,768]{2,1,0} reshape(Arg_122.694)
  broadcast.2259 = f32[1,1,768]{2,1,0} broadcast(reshape.2258), dimensions={0,1,2}
  reshape.2260 = f32[768]{0} reshape(broadcast.2259)
  broadcast.2261 = f32[32,128,768]{2,1,0} broadcast(reshape.2260), dimensions={2}
  add.2262 = f32[32,128,768]{2,1,0} add(dot.2257, broadcast.2261)
  add.2263 = f32[32,128,768]{2,1,0} add(add.2262, add.2218)
  reduce.2264 = f32[32,128]{1,0} reduce(add.2263, constant.785), dimensions={2}, to_apply=region_60.451
  divide.2265 = f32[32,128]{1,0} divide(reduce.2264, broadcast.736)
  reshape.2272 = f32[32,128,1]{2,1,0} reshape(divide.2265)
  broadcast.2274 = f32[32,128,1]{2,1,0} broadcast(reshape.2272), dimensions={0,1,2}
  reshape.2275 = f32[32,128]{1,0} reshape(broadcast.2274)
  broadcast.2276 = f32[32,128,768]{2,1,0} broadcast(reshape.2275), dimensions={0,1}
  subtract.2277 = f32[32,128,768]{2,1,0} subtract(add.2263, broadcast.2276)
  multiply.2266 = f32[32,128,768]{2,1,0} multiply(add.2263, add.2263)
  reduce.2267 = f32[32,128]{1,0} reduce(multiply.2266, constant.785), dimensions={2}, to_apply=region_61.455
  divide.2268 = f32[32,128]{1,0} divide(reduce.2267, broadcast.736)
  multiply.2269 = f32[32,128]{1,0} multiply(divide.2265, divide.2265)
  subtract.2270 = f32[32,128]{1,0} subtract(divide.2268, multiply.2269)
  maximum.2271 = f32[32,128]{1,0} maximum(subtract.2270, broadcast.734)
  reshape.2273 = f32[32,128,1]{2,1,0} reshape(maximum.2271)
  add.2278 = f32[32,128,1]{2,1,0} add(reshape.2273, broadcast.732)
  rsqrt.2279 = f32[32,128,1]{2,1,0} rsqrt(add.2278)
  broadcast.2281 = f32[32,128,1]{2,1,0} broadcast(rsqrt.2279), dimensions={0,1,2}
  reshape.2282 = f32[32,128]{1,0} reshape(broadcast.2281)
  broadcast.2283 = f32[32,128,768]{2,1,0} broadcast(reshape.2282), dimensions={0,1}
  Arg_123.695 = f32[768]{0} parameter(123)
  reshape.2280 = f32[1,1,768]{2,1,0} reshape(Arg_123.695)
  broadcast.2284 = f32[1,1,768]{2,1,0} broadcast(reshape.2280), dimensions={0,1,2}
  reshape.2285 = f32[768]{0} reshape(broadcast.2284)
  broadcast.2286 = f32[32,128,768]{2,1,0} broadcast(reshape.2285), dimensions={2}
  multiply.2287 = f32[32,128,768]{2,1,0} multiply(broadcast.2283, broadcast.2286)
  multiply.2288 = f32[32,128,768]{2,1,0} multiply(subtract.2277, multiply.2287)
  Arg_124.696 = f32[1,1,768]{2,1,0} parameter(124)
  broadcast.2289 = f32[1,1,768]{2,1,0} broadcast(Arg_124.696), dimensions={0,1,2}
  reshape.2290 = f32[768]{0} reshape(broadcast.2289)
  broadcast.2291 = f32[32,128,768]{2,1,0} broadcast(reshape.2290), dimensions={2}
  add.2292 = f32[32,128,768]{2,1,0} add(multiply.2288, broadcast.2291)
  Arg_125.697 = f32[768,2304]{1,0} parameter(125)
  dot.2293 = f32[32,128,2304]{2,1,0} dot(add.2292, Arg_125.697), lhs_contracting_dims={2}, rhs_contracting_dims={0}
  Arg_126.698 = f32[2304]{0} parameter(126)
  reshape.2294 = f32[1,1,2304]{2,1,0} reshape(Arg_126.698)
  broadcast.2295 = f32[1,1,2304]{2,1,0} broadcast(reshape.2294), dimensions={0,1,2}
  reshape.2296 = f32[2304]{0} reshape(broadcast.2295)
  broadcast.2297 = f32[32,128,2304]{2,1,0} broadcast(reshape.2296), dimensions={2}
  add.2298 = f32[32,128,2304]{2,1,0} add(dot.2293, broadcast.2297)
  reshape.2299 = f32[32,128,768,3]{3,2,1,0} reshape(add.2298)
  slice.2300 = f32[32,128,768,1]{3,2,1,0} slice(reshape.2299), slice={[0:32], [0:128], [0:768], [0:1]}
  reshape.2303 = f32[32,128,12,64]{3,2,1,0} reshape(slice.2300)
  divide.2309 = f32[32,128,12,64]{3,2,1,0} divide(reshape.2303, broadcast.744)
  slice.2302 = f32[32,128,768,1]{3,2,1,0} slice(reshape.2299), slice={[0:32], [0:128], [0:768], [2:3]}
  reshape.2305 = f32[32,128,12,64]{3,2,1,0} reshape(slice.2302)
  call.2310 = f32[32,12,128,128]{3,2,1,0} call(divide.2309, reshape.2305), to_apply=_einsum_21.459
  reshape.2306 = s32[32,1,1,128]{3,2,1,0} reshape(Arg_154.726)
  compare.2307 = pred[32,1,1,128]{3,2,1,0} compare(reshape.2306, broadcast.750), direction=GT
  select.2308 = f32[32,1,1,128]{3,2,1,0} select(compare.2307, broadcast.748, broadcast.746)
  broadcast.2311 = f32[32,1,1,128]{3,2,1,0} broadcast(select.2308), dimensions={0,1,2,3}
  reshape.2312 = f32[32,128]{1,0} reshape(broadcast.2311)
  broadcast.2313 = f32[32,12,128,128]{3,2,1,0} broadcast(reshape.2312), dimensions={0,3}
  add.2314 = f32[32,12,128,128]{3,2,1,0} add(call.2310, broadcast.2313)
  reduce.2315 = f32[32,12,128]{2,1,0} reduce(add.2314, constant.784), dimensions={3}, to_apply=region_62.463
  reshape.2316 = f32[32,12,128,1]{3,2,1,0} reshape(reduce.2315)
  broadcast.2317 = f32[32,12,128,1]{3,2,1,0} broadcast(reshape.2316), dimensions={0,1,2,3}
  reshape.2318 = f32[32,12,128]{2,1,0} reshape(broadcast.2317)
  broadcast.2319 = f32[32,12,128,128]{3,2,1,0} broadcast(reshape.2318), dimensions={0,1,2}
  subtract.2320 = f32[32,12,128,128]{3,2,1,0} subtract(add.2314, broadcast.2319)
  exponential.2321 = f32[32,12,128,128]{3,2,1,0} exponential(subtract.2320)
  reduce.2322 = f32[32,12,128]{2,1,0} reduce(exponential.2321, constant.785), dimensions={3}, to_apply=region_63.467
  reshape.2323 = f32[32,12,128,1]{3,2,1,0} reshape(reduce.2322)
  broadcast.2324 = f32[32,12,128,1]{3,2,1,0} broadcast(reshape.2323), dimensions={0,1,2,3}
  reshape.2325 = f32[32,12,128]{2,1,0} reshape(broadcast.2324)
  broadcast.2326 = f32[32,12,128,128]{3,2,1,0} broadcast(reshape.2325), dimensions={0,1,2}
  divide.2327 = f32[32,12,128,128]{3,2,1,0} divide(exponential.2321, broadcast.2326)
  slice.2301 = f32[32,128,768,1]{3,2,1,0} slice(reshape.2299), slice={[0:32], [0:128], [0:768], [1:2]}
  reshape.2304 = f32[32,128,12,64]{3,2,1,0} reshape(slice.2301)
  call.2328 = f32[32,128,12,64]{1,3,2,0} call(divide.2327, reshape.2304), to_apply=_einsum_22.471
  reshape.2329 = f32[32,128,768]{2,1,0} reshape(call.2328)
  Arg_127.699 = f32[768,768]{1,0} parameter(127)
  dot.2330 = f32[32,128,768]{2,1,0} dot(reshape.2329, Arg_127.699), lhs_contracting_dims={2}, rhs_contracting_dims={0}
  Arg_128.700 = f32[768]{0} parameter(128)
  reshape.2331 = f32[1,1,768]{2,1,0} reshape(Arg_128.700)
  broadcast.2332 = f32[1,1,768]{2,1,0} broadcast(reshape.2331), dimensions={0,1,2}
  reshape.2333 = f32[768]{0} reshape(broadcast.2332)
  broadcast.2334 = f32[32,128,768]{2,1,0} broadcast(reshape.2333), dimensions={2}
  add.2335 = f32[32,128,768]{2,1,0} add(dot.2330, broadcast.2334)
  add.2336 = f32[32,128,768]{2,1,0} add(add.2335, add.2292)
  reduce.2337 = f32[32,128]{1,0} reduce(add.2336, constant.785), dimensions={2}, to_apply=region_64.476
  divide.2338 = f32[32,128]{1,0} divide(reduce.2337, broadcast.736)
  reshape.2345 = f32[32,128,1]{2,1,0} reshape(divide.2338)
  broadcast.2347 = f32[32,128,1]{2,1,0} broadcast(reshape.2345), dimensions={0,1,2}
  reshape.2348 = f32[32,128]{1,0} reshape(broadcast.2347)
  broadcast.2349 = f32[32,128,768]{2,1,0} broadcast(reshape.2348), dimensions={0,1}
  subtract.2350 = f32[32,128,768]{2,1,0} subtract(add.2336, broadcast.2349)
  multiply.2339 = f32[32,128,768]{2,1,0} multiply(add.2336, add.2336)
  reduce.2340 = f32[32,128]{1,0} reduce(multiply.2339, constant.785), dimensions={2}, to_apply=region_65.480
  divide.2341 = f32[32,128]{1,0} divide(reduce.2340, broadcast.736)
  multiply.2342 = f32[32,128]{1,0} multiply(divide.2338, divide.2338)
  subtract.2343 = f32[32,128]{1,0} subtract(divide.2341, multiply.2342)
  maximum.2344 = f32[32,128]{1,0} maximum(subtract.2343, broadcast.734)
  reshape.2346 = f32[32,128,1]{2,1,0} reshape(maximum.2344)
  add.2351 = f32[32,128,1]{2,1,0} add(reshape.2346, broadcast.732)
  rsqrt.2352 = f32[32,128,1]{2,1,0} rsqrt(add.2351)
  broadcast.2354 = f32[32,128,1]{2,1,0} broadcast(rsqrt.2352), dimensions={0,1,2}
  reshape.2355 = f32[32,128]{1,0} reshape(broadcast.2354)
  broadcast.2356 = f32[32,128,768]{2,1,0} broadcast(reshape.2355), dimensions={0,1}
  Arg_129.701 = f32[768]{0} parameter(129)
  reshape.2353 = f32[1,1,768]{2,1,0} reshape(Arg_129.701)
  broadcast.2357 = f32[1,1,768]{2,1,0} broadcast(reshape.2353), dimensions={0,1,2}
  reshape.2358 = f32[768]{0} reshape(broadcast.2357)
  broadcast.2359 = f32[32,128,768]{2,1,0} broadcast(reshape.2358), dimensions={2}
  multiply.2360 = f32[32,128,768]{2,1,0} multiply(broadcast.2356, broadcast.2359)
  multiply.2361 = f32[32,128,768]{2,1,0} multiply(subtract.2350, multiply.2360)
  Arg_130.702 = f32[1,1,768]{2,1,0} parameter(130)
  broadcast.2362 = f32[1,1,768]{2,1,0} broadcast(Arg_130.702), dimensions={0,1,2}
  reshape.2363 = f32[768]{0} reshape(broadcast.2362)
  broadcast.2364 = f32[32,128,768]{2,1,0} broadcast(reshape.2363), dimensions={2}
  add.2365 = f32[32,128,768]{2,1,0} add(multiply.2361, broadcast.2364)
  Arg_131.703 = f32[768,3072]{1,0} parameter(131)
  dot.2366 = f32[32,128,3072]{2,1,0} dot(add.2365, Arg_131.703), lhs_contracting_dims={2}, rhs_contracting_dims={0}
  Arg_132.704 = f32[3072]{0} parameter(132)
  reshape.2367 = f32[1,1,3072]{2,1,0} reshape(Arg_132.704)
  broadcast.2368 = f32[1,1,3072]{2,1,0} broadcast(reshape.2367), dimensions={0,1,2}
  reshape.2369 = f32[3072]{0} reshape(broadcast.2368)
  broadcast.2370 = f32[32,128,3072]{2,1,0} broadcast(reshape.2369), dimensions={2}
  add.2371 = f32[32,128,3072]{2,1,0} add(dot.2366, broadcast.2370)
  divide.2372 = f32[32,128,3072]{2,1,0} divide(add.2371, broadcast.742)
  clamp.2373 = f32[32,128,3072]{2,1,0} clamp(broadcast.783, divide.2372, broadcast.781)
  multiply.2374 = f32[32,128,3072]{2,1,0} multiply(clamp.2373, clamp.2373)
  multiply.2375 = f32[32,128,3072]{2,1,0} multiply(multiply.2374, broadcast.779)
  add.2376 = f32[32,128,3072]{2,1,0} add(multiply.2375, broadcast.777)
  multiply.2377 = f32[32,128,3072]{2,1,0} multiply(add.2376, multiply.2374)
  add.2378 = f32[32,128,3072]{2,1,0} add(multiply.2377, broadcast.775)
  multiply.2379 = f32[32,128,3072]{2,1,0} multiply(add.2378, multiply.2374)
  add.2380 = f32[32,128,3072]{2,1,0} add(multiply.2379, broadcast.773)
  multiply.2381 = f32[32,128,3072]{2,1,0} multiply(add.2380, multiply.2374)
  add.2382 = f32[32,128,3072]{2,1,0} add(multiply.2381, broadcast.771)
  multiply.2383 = f32[32,128,3072]{2,1,0} multiply(add.2382, multiply.2374)
  add.2384 = f32[32,128,3072]{2,1,0} add(multiply.2383, broadcast.769)
  multiply.2385 = f32[32,128,3072]{2,1,0} multiply(add.2384, multiply.2374)
  add.2386 = f32[32,128,3072]{2,1,0} add(multiply.2385, broadcast.767)
  multiply.2387 = f32[32,128,3072]{2,1,0} multiply(add.2386, multiply.2374)
  add.2388 = f32[32,128,3072]{2,1,0} add(multiply.2387, broadcast.765)
  multiply.2399 = f32[32,128,3072]{2,1,0} multiply(clamp.2373, add.2388)
  multiply.2389 = f32[32,128,3072]{2,1,0} multiply(multiply.2374, broadcast.779)
  add.2390 = f32[32,128,3072]{2,1,0} add(multiply.2389, broadcast.763)
  multiply.2391 = f32[32,128,3072]{2,1,0} multiply(add.2390, multiply.2374)
  add.2392 = f32[32,128,3072]{2,1,0} add(multiply.2391, broadcast.761)
  multiply.2393 = f32[32,128,3072]{2,1,0} multiply(add.2392, multiply.2374)
  add.2394 = f32[32,128,3072]{2,1,0} add(multiply.2393, broadcast.759)
  multiply.2395 = f32[32,128,3072]{2,1,0} multiply(add.2394, multiply.2374)
  add.2396 = f32[32,128,3072]{2,1,0} add(multiply.2395, broadcast.757)
  multiply.2397 = f32[32,128,3072]{2,1,0} multiply(add.2396, multiply.2374)
  add.2398 = f32[32,128,3072]{2,1,0} add(multiply.2397, broadcast.755)
  divide.2400 = f32[32,128,3072]{2,1,0} divide(multiply.2399, add.2398)
  add.2401 = f32[32,128,3072]{2,1,0} add(divide.2400, broadcast.740)
  multiply.2402 = f32[32,128,3072]{2,1,0} multiply(add.2371, add.2401)
  divide.2403 = f32[32,128,3072]{2,1,0} divide(multiply.2402, broadcast.738)
  Arg_133.705 = f32[3072,768]{1,0} parameter(133)
  dot.2404 = f32[32,128,768]{2,1,0} dot(divide.2403, Arg_133.705), lhs_contracting_dims={2}, rhs_contracting_dims={0}
  Arg_134.706 = f32[768]{0} parameter(134)
  reshape.2405 = f32[1,1,768]{2,1,0} reshape(Arg_134.706)
  broadcast.2406 = f32[1,1,768]{2,1,0} broadcast(reshape.2405), dimensions={0,1,2}
  reshape.2407 = f32[768]{0} reshape(broadcast.2406)
  broadcast.2408 = f32[32,128,768]{2,1,0} broadcast(reshape.2407), dimensions={2}
  add.2409 = f32[32,128,768]{2,1,0} add(dot.2404, broadcast.2408)
  add.2410 = f32[32,128,768]{2,1,0} add(add.2409, add.2365)
  reduce.2411 = f32[32,128]{1,0} reduce(add.2410, constant.785), dimensions={2}, to_apply=region_66.484
  divide.2412 = f32[32,128]{1,0} divide(reduce.2411, broadcast.736)
  reshape.2419 = f32[32,128,1]{2,1,0} reshape(divide.2412)
  broadcast.2421 = f32[32,128,1]{2,1,0} broadcast(reshape.2419), dimensions={0,1,2}
  reshape.2422 = f32[32,128]{1,0} reshape(broadcast.2421)
  broadcast.2423 = f32[32,128,768]{2,1,0} broadcast(reshape.2422), dimensions={0,1}
  subtract.2424 = f32[32,128,768]{2,1,0} subtract(add.2410, broadcast.2423)
  multiply.2413 = f32[32,128,768]{2,1,0} multiply(add.2410, add.2410)
  reduce.2414 = f32[32,128]{1,0} reduce(multiply.2413, constant.785), dimensions={2}, to_apply=region_67.488
  divide.2415 = f32[32,128]{1,0} divide(reduce.2414, broadcast.736)
  multiply.2416 = f32[32,128]{1,0} multiply(divide.2412, divide.2412)
  subtract.2417 = f32[32,128]{1,0} subtract(divide.2415, multiply.2416)
  maximum.2418 = f32[32,128]{1,0} maximum(subtract.2417, broadcast.734)
  reshape.2420 = f32[32,128,1]{2,1,0} reshape(maximum.2418)
  add.2425 = f32[32,128,1]{2,1,0} add(reshape.2420, broadcast.732)
  rsqrt.2426 = f32[32,128,1]{2,1,0} rsqrt(add.2425)
  broadcast.2428 = f32[32,128,1]{2,1,0} broadcast(rsqrt.2426), dimensions={0,1,2}
  reshape.2429 = f32[32,128]{1,0} reshape(broadcast.2428)
  broadcast.2430 = f32[32,128,768]{2,1,0} broadcast(reshape.2429), dimensions={0,1}
  Arg_135.707 = f32[768]{0} parameter(135)
  reshape.2427 = f32[1,1,768]{2,1,0} reshape(Arg_135.707)
  broadcast.2431 = f32[1,1,768]{2,1,0} broadcast(reshape.2427), dimensions={0,1,2}
  reshape.2432 = f32[768]{0} reshape(broadcast.2431)
  broadcast.2433 = f32[32,128,768]{2,1,0} broadcast(reshape.2432), dimensions={2}
  multiply.2434 = f32[32,128,768]{2,1,0} multiply(broadcast.2430, broadcast.2433)
  multiply.2435 = f32[32,128,768]{2,1,0} multiply(subtract.2424, multiply.2434)
  Arg_136.708 = f32[1,1,768]{2,1,0} parameter(136)
  broadcast.2436 = f32[1,1,768]{2,1,0} broadcast(Arg_136.708), dimensions={0,1,2}
  reshape.2437 = f32[768]{0} reshape(broadcast.2436)
  broadcast.2438 = f32[32,128,768]{2,1,0} broadcast(reshape.2437), dimensions={2}
  add.2439 = f32[32,128,768]{2,1,0} add(multiply.2435, broadcast.2438)
  Arg_137.709 = f32[768,2304]{1,0} parameter(137)
  dot.2440 = f32[32,128,2304]{2,1,0} dot(add.2439, Arg_137.709), lhs_contracting_dims={2}, rhs_contracting_dims={0}
  Arg_138.710 = f32[2304]{0} parameter(138)
  reshape.2441 = f32[1,1,2304]{2,1,0} reshape(Arg_138.710)
  broadcast.2442 = f32[1,1,2304]{2,1,0} broadcast(reshape.2441), dimensions={0,1,2}
  reshape.2443 = f32[2304]{0} reshape(broadcast.2442)
  broadcast.2444 = f32[32,128,2304]{2,1,0} broadcast(reshape.2443), dimensions={2}
  add.2445 = f32[32,128,2304]{2,1,0} add(dot.2440, broadcast.2444)
  reshape.2446 = f32[32,128,768,3]{3,2,1,0} reshape(add.2445)
  slice.2447 = f32[32,128,768,1]{3,2,1,0} slice(reshape.2446), slice={[0:32], [0:128], [0:768], [0:1]}
  reshape.2450 = f32[32,128,12,64]{3,2,1,0} reshape(slice.2447)
  divide.2456 = f32[32,128,12,64]{3,2,1,0} divide(reshape.2450, broadcast.744)
  slice.2449 = f32[32,128,768,1]{3,2,1,0} slice(reshape.2446), slice={[0:32], [0:128], [0:768], [2:3]}
  reshape.2452 = f32[32,128,12,64]{3,2,1,0} reshape(slice.2449)
  call.2457 = f32[32,12,128,128]{3,2,1,0} call(divide.2456, reshape.2452), to_apply=_einsum_23.492
  reshape.2453 = s32[32,1,1,128]{3,2,1,0} reshape(Arg_154.726)
  compare.2454 = pred[32,1,1,128]{3,2,1,0} compare(reshape.2453, broadcast.750), direction=GT
  select.2455 = f32[32,1,1,128]{3,2,1,0} select(compare.2454, broadcast.748, broadcast.746)
  broadcast.2458 = f32[32,1,1,128]{3,2,1,0} broadcast(select.2455), dimensions={0,1,2,3}
  reshape.2459 = f32[32,128]{1,0} reshape(broadcast.2458)
  broadcast.2460 = f32[32,12,128,128]{3,2,1,0} broadcast(reshape.2459), dimensions={0,3}
  add.2461 = f32[32,12,128,128]{3,2,1,0} add(call.2457, broadcast.2460)
  reduce.2462 = f32[32,12,128]{2,1,0} reduce(add.2461, constant.784), dimensions={3}, to_apply=region_68.496
  reshape.2463 = f32[32,12,128,1]{3,2,1,0} reshape(reduce.2462)
  broadcast.2464 = f32[32,12,128,1]{3,2,1,0} broadcast(reshape.2463), dimensions={0,1,2,3}
  reshape.2465 = f32[32,12,128]{2,1,0} reshape(broadcast.2464)
  broadcast.2466 = f32[32,12,128,128]{3,2,1,0} broadcast(reshape.2465), dimensions={0,1,2}
  subtract.2467 = f32[32,12,128,128]{3,2,1,0} subtract(add.2461, broadcast.2466)
  exponential.2468 = f32[32,12,128,128]{3,2,1,0} exponential(subtract.2467)
  reduce.2469 = f32[32,12,128]{2,1,0} reduce(exponential.2468, constant.785), dimensions={3}, to_apply=region_69.500
  reshape.2470 = f32[32,12,128,1]{3,2,1,0} reshape(reduce.2469)
  broadcast.2471 = f32[32,12,128,1]{3,2,1,0} broadcast(reshape.2470), dimensions={0,1,2,3}
  reshape.2472 = f32[32,12,128]{2,1,0} reshape(broadcast.2471)
  broadcast.2473 = f32[32,12,128,128]{3,2,1,0} broadcast(reshape.2472), dimensions={0,1,2}
  divide.2474 = f32[32,12,128,128]{3,2,1,0} divide(exponential.2468, broadcast.2473)
  slice.2448 = f32[32,128,768,1]{3,2,1,0} slice(reshape.2446), slice={[0:32], [0:128], [0:768], [1:2]}
  reshape.2451 = f32[32,128,12,64]{3,2,1,0} reshape(slice.2448)
  call.2475 = f32[32,128,12,64]{1,3,2,0} call(divide.2474, reshape.2451), to_apply=_einsum_24.504
  reshape.2476 = f32[32,128,768]{2,1,0} reshape(call.2475)
  Arg_139.711 = f32[768,768]{1,0} parameter(139)
  dot.2477 = f32[32,128,768]{2,1,0} dot(reshape.2476, Arg_139.711), lhs_contracting_dims={2}, rhs_contracting_dims={0}
  Arg_140.712 = f32[768]{0} parameter(140)
  reshape.2478 = f32[1,1,768]{2,1,0} reshape(Arg_140.712)
  broadcast.2479 = f32[1,1,768]{2,1,0} broadcast(reshape.2478), dimensions={0,1,2}
  reshape.2480 = f32[768]{0} reshape(broadcast.2479)
  broadcast.2481 = f32[32,128,768]{2,1,0} broadcast(reshape.2480), dimensions={2}
  add.2482 = f32[32,128,768]{2,1,0} add(dot.2477, broadcast.2481)
  add.2483 = f32[32,128,768]{2,1,0} add(add.2482, add.2439)
  reduce.2484 = f32[32,128]{1,0} reduce(add.2483, constant.785), dimensions={2}, to_apply=region_70.509
  divide.2485 = f32[32,128]{1,0} divide(reduce.2484, broadcast.736)
  reshape.2492 = f32[32,128,1]{2,1,0} reshape(divide.2485)
  broadcast.2494 = f32[32,128,1]{2,1,0} broadcast(reshape.2492), dimensions={0,1,2}
  reshape.2495 = f32[32,128]{1,0} reshape(broadcast.2494)
  broadcast.2496 = f32[32,128,768]{2,1,0} broadcast(reshape.2495), dimensions={0,1}
  subtract.2497 = f32[32,128,768]{2,1,0} subtract(add.2483, broadcast.2496)
  multiply.2486 = f32[32,128,768]{2,1,0} multiply(add.2483, add.2483)
  reduce.2487 = f32[32,128]{1,0} reduce(multiply.2486, constant.785), dimensions={2}, to_apply=region_71.513
  divide.2488 = f32[32,128]{1,0} divide(reduce.2487, broadcast.736)
  multiply.2489 = f32[32,128]{1,0} multiply(divide.2485, divide.2485)
  subtract.2490 = f32[32,128]{1,0} subtract(divide.2488, multiply.2489)
  maximum.2491 = f32[32,128]{1,0} maximum(subtract.2490, broadcast.734)
  reshape.2493 = f32[32,128,1]{2,1,0} reshape(maximum.2491)
  add.2498 = f32[32,128,1]{2,1,0} add(reshape.2493, broadcast.732)
  rsqrt.2499 = f32[32,128,1]{2,1,0} rsqrt(add.2498)
  broadcast.2501 = f32[32,128,1]{2,1,0} broadcast(rsqrt.2499), dimensions={0,1,2}
  reshape.2502 = f32[32,128]{1,0} reshape(broadcast.2501)
  broadcast.2503 = f32[32,128,768]{2,1,0} broadcast(reshape.2502), dimensions={0,1}
  Arg_141.713 = f32[768]{0} parameter(141)
  reshape.2500 = f32[1,1,768]{2,1,0} reshape(Arg_141.713)
  broadcast.2504 = f32[1,1,768]{2,1,0} broadcast(reshape.2500), dimensions={0,1,2}
  reshape.2505 = f32[768]{0} reshape(broadcast.2504)
  broadcast.2506 = f32[32,128,768]{2,1,0} broadcast(reshape.2505), dimensions={2}
  multiply.2507 = f32[32,128,768]{2,1,0} multiply(broadcast.2503, broadcast.2506)
  multiply.2508 = f32[32,128,768]{2,1,0} multiply(subtract.2497, multiply.2507)
  Arg_142.714 = f32[1,1,768]{2,1,0} parameter(142)
  broadcast.2509 = f32[1,1,768]{2,1,0} broadcast(Arg_142.714), dimensions={0,1,2}
  reshape.2510 = f32[768]{0} reshape(broadcast.2509)
  broadcast.2511 = f32[32,128,768]{2,1,0} broadcast(reshape.2510), dimensions={2}
  add.2512 = f32[32,128,768]{2,1,0} add(multiply.2508, broadcast.2511)
  Arg_143.715 = f32[768,3072]{1,0} parameter(143)
  dot.2513 = f32[32,128,3072]{2,1,0} dot(add.2512, Arg_143.715), lhs_contracting_dims={2}, rhs_contracting_dims={0}
  Arg_144.716 = f32[3072]{0} parameter(144)
  reshape.2514 = f32[1,1,3072]{2,1,0} reshape(Arg_144.716)
  broadcast.2515 = f32[1,1,3072]{2,1,0} broadcast(reshape.2514), dimensions={0,1,2}
  reshape.2516 = f32[3072]{0} reshape(broadcast.2515)
  broadcast.2517 = f32[32,128,3072]{2,1,0} broadcast(reshape.2516), dimensions={2}
  add.2518 = f32[32,128,3072]{2,1,0} add(dot.2513, broadcast.2517)
  divide.2519 = f32[32,128,3072]{2,1,0} divide(add.2518, broadcast.742)
  clamp.2520 = f32[32,128,3072]{2,1,0} clamp(broadcast.783, divide.2519, broadcast.781)
  multiply.2521 = f32[32,128,3072]{2,1,0} multiply(clamp.2520, clamp.2520)
  multiply.2522 = f32[32,128,3072]{2,1,0} multiply(multiply.2521, broadcast.779)
  add.2523 = f32[32,128,3072]{2,1,0} add(multiply.2522, broadcast.777)
  multiply.2524 = f32[32,128,3072]{2,1,0} multiply(add.2523, multiply.2521)
  add.2525 = f32[32,128,3072]{2,1,0} add(multiply.2524, broadcast.775)
  multiply.2526 = f32[32,128,3072]{2,1,0} multiply(add.2525, multiply.2521)
  add.2527 = f32[32,128,3072]{2,1,0} add(multiply.2526, broadcast.773)
  multiply.2528 = f32[32,128,3072]{2,1,0} multiply(add.2527, multiply.2521)
  add.2529 = f32[32,128,3072]{2,1,0} add(multiply.2528, broadcast.771)
  multiply.2530 = f32[32,128,3072]{2,1,0} multiply(add.2529, multiply.2521)
  add.2531 = f32[32,128,3072]{2,1,0} add(multiply.2530, broadcast.769)
  multiply.2532 = f32[32,128,3072]{2,1,0} multiply(add.2531, multiply.2521)
  add.2533 = f32[32,128,3072]{2,1,0} add(multiply.2532, broadcast.767)
  multiply.2534 = f32[32,128,3072]{2,1,0} multiply(add.2533, multiply.2521)
  add.2535 = f32[32,128,3072]{2,1,0} add(multiply.2534, broadcast.765)
  multiply.2546 = f32[32,128,3072]{2,1,0} multiply(clamp.2520, add.2535)
  multiply.2536 = f32[32,128,3072]{2,1,0} multiply(multiply.2521, broadcast.779)
  add.2537 = f32[32,128,3072]{2,1,0} add(multiply.2536, broadcast.763)
  multiply.2538 = f32[32,128,3072]{2,1,0} multiply(add.2537, multiply.2521)
  add.2539 = f32[32,128,3072]{2,1,0} add(multiply.2538, broadcast.761)
  multiply.2540 = f32[32,128,3072]{2,1,0} multiply(add.2539, multiply.2521)
  add.2541 = f32[32,128,3072]{2,1,0} add(multiply.2540, broadcast.759)
  multiply.2542 = f32[32,128,3072]{2,1,0} multiply(add.2541, multiply.2521)
  add.2543 = f32[32,128,3072]{2,1,0} add(multiply.2542, broadcast.757)
  multiply.2544 = f32[32,128,3072]{2,1,0} multiply(add.2543, multiply.2521)
  add.2545 = f32[32,128,3072]{2,1,0} add(multiply.2544, broadcast.755)
  divide.2547 = f32[32,128,3072]{2,1,0} divide(multiply.2546, add.2545)
  add.2548 = f32[32,128,3072]{2,1,0} add(divide.2547, broadcast.740)
  multiply.2549 = f32[32,128,3072]{2,1,0} multiply(add.2518, add.2548)
  divide.2550 = f32[32,128,3072]{2,1,0} divide(multiply.2549, broadcast.738)
  Arg_145.717 = f32[3072,768]{1,0} parameter(145)
  dot.2551 = f32[32,128,768]{2,1,0} dot(divide.2550, Arg_145.717), lhs_contracting_dims={2}, rhs_contracting_dims={0}
  Arg_146.718 = f32[768]{0} parameter(146)
  reshape.2552 = f32[1,1,768]{2,1,0} reshape(Arg_146.718)
  broadcast.2553 = f32[1,1,768]{2,1,0} broadcast(reshape.2552), dimensions={0,1,2}
  reshape.2554 = f32[768]{0} reshape(broadcast.2553)
  broadcast.2555 = f32[32,128,768]{2,1,0} broadcast(reshape.2554), dimensions={2}
  add.2556 = f32[32,128,768]{2,1,0} add(dot.2551, broadcast.2555)
  add.2557 = f32[32,128,768]{2,1,0} add(add.2556, add.2512)
  reduce.2558 = f32[32,128]{1,0} reduce(add.2557, constant.785), dimensions={2}, to_apply=region_72.517
  divide.2559 = f32[32,128]{1,0} divide(reduce.2558, broadcast.736)
  reshape.2566 = f32[32,128,1]{2,1,0} reshape(divide.2559)
  broadcast.2568 = f32[32,128,1]{2,1,0} broadcast(reshape.2566), dimensions={0,1,2}
  reshape.2569 = f32[32,128]{1,0} reshape(broadcast.2568)
  broadcast.2570 = f32[32,128,768]{2,1,0} broadcast(reshape.2569), dimensions={0,1}
  subtract.2571 = f32[32,128,768]{2,1,0} subtract(add.2557, broadcast.2570)
  multiply.2560 = f32[32,128,768]{2,1,0} multiply(add.2557, add.2557)
  reduce.2561 = f32[32,128]{1,0} reduce(multiply.2560, constant.785), dimensions={2}, to_apply=region_73.521
  divide.2562 = f32[32,128]{1,0} divide(reduce.2561, broadcast.736)
  multiply.2563 = f32[32,128]{1,0} multiply(divide.2559, divide.2559)
  subtract.2564 = f32[32,128]{1,0} subtract(divide.2562, multiply.2563)
  maximum.2565 = f32[32,128]{1,0} maximum(subtract.2564, broadcast.734)
  reshape.2567 = f32[32,128,1]{2,1,0} reshape(maximum.2565)
  add.2572 = f32[32,128,1]{2,1,0} add(reshape.2567, broadcast.732)
  rsqrt.2573 = f32[32,128,1]{2,1,0} rsqrt(add.2572)
  broadcast.2575 = f32[32,128,1]{2,1,0} broadcast(rsqrt.2573), dimensions={0,1,2}
  reshape.2576 = f32[32,128]{1,0} reshape(broadcast.2575)
  broadcast.2577 = f32[32,128,768]{2,1,0} broadcast(reshape.2576), dimensions={0,1}
  Arg_147.719 = f32[768]{0} parameter(147)
  reshape.2574 = f32[1,1,768]{2,1,0} reshape(Arg_147.719)
  broadcast.2578 = f32[1,1,768]{2,1,0} broadcast(reshape.2574), dimensions={0,1,2}
  reshape.2579 = f32[768]{0} reshape(broadcast.2578)
  broadcast.2580 = f32[32,128,768]{2,1,0} broadcast(reshape.2579), dimensions={2}
  multiply.2581 = f32[32,128,768]{2,1,0} multiply(broadcast.2577, broadcast.2580)
  multiply.2582 = f32[32,128,768]{2,1,0} multiply(subtract.2571, multiply.2581)
  Arg_148.720 = f32[1,1,768]{2,1,0} parameter(148)
  broadcast.2583 = f32[1,1,768]{2,1,0} broadcast(Arg_148.720), dimensions={0,1,2}
  reshape.2584 = f32[768]{0} reshape(broadcast.2583)
  broadcast.2585 = f32[32,128,768]{2,1,0} broadcast(reshape.2584), dimensions={2}
  add.2586 = f32[32,128,768]{2,1,0} add(multiply.2582, broadcast.2585)
  slice.2587 = f32[32,1,768]{2,1,0} slice(add.2586), slice={[0:32], [0:1], [0:768]}
  reshape.2588 = f32[32,768]{1,0} reshape(slice.2587)
  Arg_149.721 = f32[768,768]{1,0} parameter(149)
  dot.2589 = f32[32,768]{1,0} dot(reshape.2588, Arg_149.721), lhs_contracting_dims={1}, rhs_contracting_dims={0}
  Arg_150.722 = f32[768]{0} parameter(150)
  reshape.2590 = f32[1,768]{1,0} reshape(Arg_150.722)
  broadcast.2591 = f32[1,768]{1,0} broadcast(reshape.2590), dimensions={0,1}
  reshape.2592 = f32[768]{0} reshape(broadcast.2591)
  broadcast.2593 = f32[32,768]{1,0} broadcast(reshape.2592), dimensions={1}
  add.2594 = f32[32,768]{1,0} add(dot.2589, broadcast.2593)
  tanh.2595 = f32[32,768]{1,0} tanh(add.2594)
  Arg_151.723 = f32[768,2]{1,0} parameter(151)
  dot.2596 = f32[32,2]{1,0} dot(tanh.2595, Arg_151.723), lhs_contracting_dims={1}, rhs_contracting_dims={0}
  Arg_152.724 = f32[2]{0} parameter(152)
  reshape.2597 = f32[1,2]{1,0} reshape(Arg_152.724)
  broadcast.2598 = f32[1,2]{1,0} broadcast(reshape.2597), dimensions={0,1}
  reshape.2599 = f32[2]{0} reshape(broadcast.2598)
  broadcast.2600 = f32[32,2]{1,0} broadcast(reshape.2599), dimensions={1}
  add.2601 = f32[32,2]{1,0} add(dot.2596, broadcast.2600)
  call.2605 = f32[32,2]{1,0} call(add.2601), to_apply=log_softmax.553
  ROOT tuple.2606 = () tuple()
}

ENTRY main.2609 {
  constant.5 = f32[30522,768]{1,0} constant({...})
  constant.6 = f32[512,768]{1,0} constant({...})
  constant.7 = f32[2,768]{1,0} constant({...})
  constant.8 = f32[] constant(1)
  broadcast.9 = f32[768]{0} broadcast(constant.8), dimensions={}
  constant.10 = f32[] constant(0)
  broadcast.11 = f32[1,1,768]{2,1,0} broadcast(constant.10), dimensions={}
  constant.12 = f32[768,2304]{1,0} constant({...})
  constant.13 = f32[] constant(0)
  broadcast.14 = f32[2304]{0} broadcast(constant.13), dimensions={}
  constant.15 = f32[768,768]{1,0} constant({...})
  constant.16 = f32[] constant(0)
  broadcast.17 = f32[768]{0} broadcast(constant.16), dimensions={}
  constant.18 = f32[768,3072]{1,0} constant({...})
  constant.19 = f32[] constant(0)
  broadcast.20 = f32[3072]{0} broadcast(constant.19), dimensions={}
  constant.21 = f32[] constant(-0)
  broadcast.22 = f32[3072,768]{1,0} broadcast(constant.21), dimensions={}
  constant.23 = f32[768,2304]{1,0} constant({...})
  constant.24 = f32[768,768]{1,0} constant({...})
  constant.25 = f32[768,3072]{1,0} constant({...})
  constant.26 = f32[] constant(-0)
  broadcast.27 = f32[3072,768]{1,0} broadcast(constant.26), dimensions={}
  constant.28 = f32[768,2304]{1,0} constant({...})
  constant.29 = f32[768,768]{1,0} constant({...})
  constant.30 = f32[768,3072]{1,0} constant({...})
  constant.31 = f32[] constant(-0)
  broadcast.32 = f32[3072,768]{1,0} broadcast(constant.31), dimensions={}
  constant.33 = f32[768,2304]{1,0} constant({...})
  constant.34 = f32[768,768]{1,0} constant({...})
  constant.35 = f32[768,3072]{1,0} constant({...})
  constant.36 = f32[] constant(-0)
  broadcast.37 = f32[3072,768]{1,0} broadcast(constant.36), dimensions={}
  constant.38 = f32[768,2304]{1,0} constant({...})
  constant.39 = f32[768,768]{1,0} constant({...})
  constant.40 = f32[768,3072]{1,0} constant({...})
  constant.41 = f32[] constant(-0)
  broadcast.42 = f32[3072,768]{1,0} broadcast(constant.41), dimensions={}
  constant.43 = f32[768,2304]{1,0} constant({...})
  constant.44 = f32[768,768]{1,0} constant({...})
  constant.45 = f32[768,3072]{1,0} constant({...})
  constant.46 = f32[] constant(0)
  broadcast.47 = f32[3072,768]{1,0} broadcast(constant.46), dimensions={}
  constant.48 = f32[768,2304]{1,0} constant({...})
  constant.49 = f32[768,768]{1,0} constant({...})
  constant.50 = f32[768,3072]{1,0} constant({...})
  constant.51 = f32[] constant(-0)
  broadcast.52 = f32[3072,768]{1,0} broadcast(constant.51), dimensions={}
  constant.53 = f32[768,2304]{1,0} constant({...})
  constant.54 = f32[768,768]{1,0} constant({...})
  constant.55 = f32[768,3072]{1,0} constant({...})
  constant.56 = f32[] constant(0)
  broadcast.57 = f32[3072,768]{1,0} broadcast(constant.56), dimensions={}
  constant.58 = f32[768,2304]{1,0} constant({...})
  constant.59 = f32[768,768]{1,0} constant({...})
  constant.60 = f32[768,3072]{1,0} constant({...})
  constant.61 = f32[] constant(0)
  broadcast.62 = f32[3072,768]{1,0} broadcast(constant.61), dimensions={}
  constant.63 = f32[768,2304]{1,0} constant({...})
  constant.64 = f32[768,768]{1,0} constant({...})
  constant.65 = f32[768,3072]{1,0} constant({...})
  constant.66 = f32[] constant(0)
  broadcast.67 = f32[3072,768]{1,0} broadcast(constant.66), dimensions={}
  constant.68 = f32[768,2304]{1,0} constant({...})
  constant.69 = f32[768,768]{1,0} constant({...})
  constant.70 = f32[768,3072]{1,0} constant({...})
  constant.71 = f32[] constant(-0)
  broadcast.72 = f32[3072,768]{1,0} broadcast(constant.71), dimensions={}
  constant.73 = f32[768,2304]{1,0} constant({...})
  constant.74 = f32[768,768]{1,0} constant({...})
  constant.75 = f32[768,3072]{1,0} constant({...})
  constant.76 = f32[] constant(0)
  broadcast.77 = f32[3072,768]{1,0} broadcast(constant.76), dimensions={}
  constant.78 = f32[768,768]{1,0} constant({...})
  constant.79 = f32[768,2]{1,0} constant({...})
  constant.80 = f32[] constant(0)
  broadcast.81 = f32[2]{0} broadcast(constant.80), dimensions={}
  Arg_0.1 = s32[32,128]{1,0} parameter(0)
  Arg_1.2 = s32[32,128]{1,0} parameter(1)
  Arg_2.3 = s32[32,128]{1,0} parameter(2)
  Arg_3.4 = s32[32]{0} parameter(3)
  call.2607 = () call(constant.5, constant.6, constant.7, broadcast.9, broadcast.11, constant.12, broadcast.14, constant.15, broadcast.17, broadcast.9, broadcast.11, constant.18, broadcast.20, broadcast.22, broadcast.17, broadcast.9, broadcast.11, constant.23, broadcast.14, constant.24, broadcast.17, broadcast.9, broadcast.11, constant.25, broadcast.20, broadcast.27, broadcast.17, broadcast.9, broadcast.11, constant.28, broadcast.14, constant.29, broadcast.17, broadcast.9, broadcast.11, constant.30, broadcast.20, broadcast.32, broadcast.17, broadcast.9, broadcast.11, constant.33, broadcast.14, constant.34, broadcast.17, broadcast.9, broadcast.11, constant.35, broadcast.20, broadcast.37, broadcast.17, broadcast.9, broadcast.11, constant.38, broadcast.14, constant.39, broadcast.17, broadcast.9, broadcast.11, constant.40, broadcast.20, broadcast.42, broadcast.17, broadcast.9, broadcast.11, constant.43, broadcast.14, constant.44, broadcast.17, broadcast.9, broadcast.11, constant.45, broadcast.20, broadcast.47, broadcast.17, broadcast.9, broadcast.11, constant.48, broadcast.14, constant.49, broadcast.17, broadcast.9, broadcast.11, constant.50, broadcast.20, broadcast.52, broadcast.17, broadcast.9, broadcast.11, constant.53, broadcast.14, constant.54, broadcast.17, broadcast.9, broadcast.11, constant.55, broadcast.20, broadcast.57, broadcast.17, broadcast.9, broadcast.11, constant.58, broadcast.14, constant.59, broadcast.17, broadcast.9, broadcast.11, constant.60, broadcast.20, broadcast.62, broadcast.17, broadcast.9, broadcast.11, constant.63, broadcast.14, constant.64, broadcast.17, broadcast.9, broadcast.11, constant.65, broadcast.20, broadcast.67, broadcast.17, broadcast.9, broadcast.11, constant.68, broadcast.14, constant.69, broadcast.17, broadcast.9, broadcast.11, constant.70, broadcast.20, broadcast.72, broadcast.17, broadcast.9, broadcast.11, constant.73, broadcast.14, constant.74, broadcast.17, broadcast.9, broadcast.11, constant.75, broadcast.20, broadcast.77, broadcast.17, broadcast.9, broadcast.11, constant.78, broadcast.17, constant.79, broadcast.81, Arg_0.1, Arg_1.2, Arg_2.3, Arg_3.4), to_apply=eval_step.571
  ROOT tuple.2608 = () tuple()
}

